resources/trained_policies/cartpole_v1/checkpoint_000010/learner/module_state/default_policy/module_state_dir/module_state.pt (torch, 544898 bytes, 11 tensors)

encoder.actor_encoder.net.mlp.0.weight f4 [256, 4]
000000 34 e4 d4 3e 57 3a b9 be 01 58 32 be 8e ee 73 3d
       0.41580355 -0.36177322 -0.17416383 0.059553675
000010 72 66 27 be 87 e3 a5 be 3c 1a 79 be e4 d1 36 be
       -0.16347674 -0.32400152 -0.24326414 -0.17853504
000020 a1 0c b4 bd 1d 1e 14 3e 36 e8 95 bd 6c f1 06 3d
       -0.08791471 0.14464612 -0.07319681 0.03294508
000030 37 ef 68 3e 29 ea 18 be 55 6d 9b be ff d3 b1 be
       0.22747503 -0.14933075 -0.3035685 -0.34732053
000040 ef 59 02 bf 69 89 8f 3e 2b 89 bc 3b 5a 46 8e bc
       -0.5091848 0.28034523 0.0057536564 -0.01736753
000050 b4 34 d3 be 1e 90 e5 bd 22 63 bb 3e fb 98 7f 3e
       -0.41251147 -0.11209129 0.3659907 0.24960701
000060 d2 2e 08 3f 3d 62 f7 3e 56 00 ae 3e 65 2a a0 3e
       0.5319644 0.48317137 0.3398463 0.31282344
000070 12 3f d2 bd b0 5d e6 be 34 66 17 3f ab 37 2d be
       -0.10265936 -0.44993353 0.59140325 -0.16915767
000080 22 bc fd be 00 f6 65 3e 55 c2 e0 be c2 a6 e9 3d
       -0.49557596 0.22457123 -0.43898264 0.1140876
000090 c9 b1 c8 be e5 b1 d1 be 96 b4 c5 bd 47 26 ed bd
       -0.3919814 -0.40956035 -0.09653585 -0.115795664
0000a0 45 e5 d2 bd c4 02 0f be bf ac d8 be e9 58 03 bf
       -0.10297636 -0.13965899 -0.42319295 -0.5130754
0000b0 84 06 0b 3e 9f a1 c9 be 8a a9 1a bf c1 21 ec be
       0.13576704 -0.3938112 -0.60414946 -0.46119502
0000c0 2b 45 e0 3d 82 52 ec 3e 6d f3 d8 be dc 3f b7 3e
       0.10950693 0.46156698 -0.4237322 0.35790908
0000d0 e5 30 e2 3d 9f c6 00 bf e8 1e 13 be 4b ac e4 be
       0.11044482 -0.5030307 -0.14367259 -0.446627
0000e0 75 67 a7 3e 31 2f a6 bd 13 04 93 be b2 32 8c be
       0.3269612 -0.0811447 -0.28714046 -0.27382427
0000f0 81 26 38 3e 01 c3 a2 3e 2f fa 8b be 38 55 3c bc
       0.17983438 0.317894 -0.27339312 -0.011494927
000100 39 78 b4 be 60 05 5b be 54 3d e1 be 1f 5d 85 be
       -0.35247973 -0.21388769 -0.43992102 -0.26047608
000110 2e 8e 19 3e 85 db ed 3e 3c e4 28 be b2 4e 17 be
       0.14995643 0.46456543 -0.16493315 -0.14776114
000120 5b bc fd 3e 86 6b 81 3e 53 82 ac 3e 7e c2 e4 be
       0.49557766 0.25277346 0.3369318 -0.44679636
000130 21 4c 80 3e 10 09 08 be ec 24 5a be 87 a6 f1 3e
       0.25058082 -0.13284707 -0.21303147 0.47197363
000140 89 27 76 bd 08 b3 29 be e0 9a cb 3e 34 8c 5a bd
       -0.060096297 -0.16572201 0.39766598 -0.053356364
000150 b9 c5 0d 3e 16 a9 fd bc 90 9f 13 3e 3e 1c d8 3e
       0.13844956 -0.030964416 0.14416337 0.42209047
000160 77 80 68 3e 35 f6 90 be 3b cc 25 3f 97 46 e0 3e
       0.22705255 -0.2831284 0.64764756 0.43803856
000170 cc 45 df 3e 55 de 9b 3d 70 be ff be fa f4 f1 be
       0.43607938 0.07610766 -0.4994998 -0.47257215
000180 e7 3c e0 be 75 a0 65 bc ef f5 01 bf b9 17 c0 be
       -0.43796465 -0.014015307 -0.5076589 -0.375181
000190 92 c8 ee bd 58 a3 d0 3d 85 aa 0f be 28 23 66 be
       -0.116593495 0.10187405 -0.14029892 -0.22474349
0001a0 74 99 5c 3d 27 fa fa 3e 5b b9 51 be 53 11 6f 3e
       0.05385728 0.49018976 -0.20480864 0.23346452
0001b0 7a 48 2b 3e a0 79 12 3e d6 f6 a3 be b5 b5 11 be
       0.16726866 0.14304209 -0.32024258 -0.14229472
0001c0 9c ce 06 be a7 98 89 3e bf 04 d4 3e 9b e9 6d 3e
       -0.13164753 0.26874277 0.4140987 0.23233645
0001d0 40 6f c8 bd 73 f9 e2 be 7d 69 e8 be c3 f4 4a 3e
       -0.09786844 -0.4433094 -0.4539298 0.19819932
0001e0 f6 31 3d 3e c3 59 99 3e 9b 53 04 3f c0 52 98 3e
       0.1847609 0.29951295 0.5169007 0.29750633
0001f0 05 7f 9d bc 42 21 ed be ff 4f 13 bf 81 7b 83 3d
       -0.019225607 -0.46314436 -0.5754394 0.06420041
000200 68 a3 20 bd bf f0 d7 be 54 3e 9f 3d bc a9 85 be
       -0.039218336 -0.42175862 0.0777556 -0.2610606
000210 69 a0 b8 be 79 03 c6 be 5e 96 02 3f 56 c3 c2 3e
       -0.36059883 -0.38674524 0.5101069 0.38039654
000220 2a 79 db 3e ba 30 f4 3d f0 af 19 bf e5 c0 09 bd
       0.42865878 0.11923356 -0.60034084 -0.033631224
000230 c0 39 81 3d 9c b6 b3 be a4 45 08 bf 8e f1 bd 3d
       0.06309843 -0.35100257 -0.53231263 0.092745885
000240 3e 16 fd 3e 39 71 44 be 67 c1 31 3f 1d 0f 03 3f
       0.49431032 -0.19183816 0.69435734 0.51194936
000250 fa 17 b9 be dc 9b cc 3e 2d 6e 78 3e 96 ba 19 3e
       -0.36151105 0.3996266 0.24260779 0.15012583
000260 a2 01 1f 3e 61 b4 94 be f3 f1 15 bf 2e f0 dd 3e
       0.15527967 -0.29043868 -0.5857231 0.43347305
000270 55 a8 e4 3d 81 24 db 3c d5 f4 7c 3e 70 81 58 be
       0.11164919 0.026750805 0.24702771 -0.21143126
000280 40 26 bc be 3c da c9 be fb 19 09 bf 84 4c 4a 3e
       -0.36747932 -0.39424312 -0.5355527 0.19755751
000290 8f 5b b8 be 52 b0 20 be d3 b1 b2 3d c5 19 c1 3d
       -0.36007354 -0.15692261 0.087253235 0.09428743
0002a0 34 23 8c bc 12 f7 31 be 2b 12 c3 be 9f be c8 3e
       -0.01710663 -0.17379406 -0.380998 0.39207932
0002b0 0e 3a 86 3e 16 99 27 3e c3 0e 1b be b8 c8 eb be
       0.26216167 0.16366991 -0.1514235 -0.46051574
0002c0 73 70 73 3e ee 24 51 bd ee a0 96 be eb 58 de be
       0.23773365 -0.05106061 -0.29419655 -0.43427214
0002d0 b1 21 fa bd e2 0a fe bd 6b 45 d8 bd fa 53 fc be
       -0.122134574 -0.124044195 -0.105601154 -0.4928282
0002e0 c9 b1 98 3e 57 2f ee be e9 6d cf 3e ad 2d 16 3d
       0.2982314 -0.46520492 0.40513542 0.036664654
0002f0 29 e8 96 3e 5d ec f1 3e d8 4e e3 be c6 42 85 bd
       0.29474 0.47250643 -0.4439609 -0.06506877
000300 c9 1b e6 bd 52 9f 47 3e 20 46 37 3e 0d ad ac 3e
       -0.11235768 0.1949437 0.17897844 0.33725777
000310 34 9a 98 bd 49 de 91 be 6a 44 ec 3e f1 9b 5b be
       -0.07451287 -0.28489903 0.46145946 -0.21446206
000320 a6 17 4a bd d8 92 88 bd 2c 5f 9b 3d f7 e6 e6 be
       -0.04933896 -0.06668633 0.07586512 -0.45098087
000330 e3 c0 03 bd 57 b3 2e bd e8 0c 0e 3f 38 36 04 3f
       -0.032166373 -0.0426515 0.55488443 0.5164523
000340 74 d4 2f be cd ef d7 be ed 81 48 be 69 b7 01 3f
       -0.17170888 -0.4217514 -0.19580813 0.50670487
000350 05 06 92 3e ee 15 7e bd 64 27 3b 3e 58 28 d3 3e
       0.28520218 -0.062032633 0.18276745 0.41241717
000360 f8 9a 1a 3e 88 62 35 be 16 66 b1 be c9 81 bc be
       0.15098178 -0.17713368 -0.34648198 -0.36817768
000370 be 72 d5 be 0c 66 2d 3d fd 20 c6 be 30 cb 5e be
       -0.41689104 0.042333648 -0.38697043 -0.21757197
000380 87 09 f9 be 70 e9 9e bd 3e cf 03 3f 8c 64 dc 3e
       -0.4864008 -0.077593684 0.514881 0.4304546
000390 d9 60 1d be 97 80 a1 3d 0d f9 ff 3e bf 2a e6 3e
       -0.15368976 0.07885855 0.49994698 0.44954488
0003a0 08 ef 14 3d 62 a1 b9 be e7 51 ee 3e 90 01 a3 3c
       0.03636077 -0.36255938 0.46546862 0.019898206
0003b0 29 9e 9f 3e 03 d3 97 3e eb 4b d6 3d 7b cf 06 3f
       0.31175354 0.29653177 0.10463699 0.5266034
0003c0 0e e9 c1 3e 8f 2f df be 7a a7 26 3f 3c a0 de 3e
       0.3787312 -0.43590972 0.650993 0.43481624
0003d0 10 19 f2 be 11 14 43 be 3f 99 e0 3d 40 27 b5 bd
       -0.47284746 -0.19050623 0.109667294 -0.08845377
0003e0 58 9a 87 3e 6a 69 ab be 70 f0 03 3e b0 12 de bd
       0.26484942 -0.33478862 0.12884688 -0.10843408
0003f0 84 27 d5 3d 10 1d 9a 3e be e4 0f be 8e 21 c8 3d
       0.10407928 0.30100298 -0.14052102 0.09772025

encoder.actor_encoder.net.mlp.0.bias f4 [256]
000000 79 9f 8b 3e 94 f9 8c 3e 8d 37 84 3e 0e ac 00 3e
       0.27270105 0.27534163 0.25823632 0.12565634
000010 a9 65 f6 bd e4 92 d1 bc 3e d6 f1 be 3c 5b 88 3e
       -0.12031109 -0.025582738 -0.47233766 0.26632106
000020 30 8b d1 3e 98 f4 eb 3e e1 1f dc 3e 57 29 53 3e
       0.40926504 0.46085048 0.42993072 0.20621239
000030 f9 f5 4f 3d dd ca 42 3e 28 d0 b1 bd 08 73 84 3e
       0.050771687 0.19022699 -0.08682281 0.25869012
000040 37 77 8c 3e db 96 89 be 45 15 8a 3e ab ad a0 3e
       0.27434704 -0.26872906 0.26969352 0.31382498
000050 64 9b a7 be 8c 44 d8 3e 24 60 d9 bd b3 14 c8 3b
       -0.3273574 0.42239797 -0.106140405 0.006105983
000060 56 44 ad 3d ba 40 b2 be 96 28 b8 be b5 7a f6 3e
       0.084603 -0.34815007 -0.35968465 0.48140493
000070 ac 48 f7 be e1 5a 87 be c6 00 55 3e 47 e9 ad 3e
       -0.48297632 -0.26436523 0.20801076 0.3396704
000080 54 8c 98 3e 93 6d e0 ba 87 ed 8e 3e da e9 f1 be
       0.29794562 -0.0017122499 0.27915594 -0.47248727
000090 bb c5 f6 3c af 40 da be a3 cc 8c be 0e 5f e4 be
       0.030123582 -0.42627475 -0.27499875 -0.4460377
0000a0 54 60 64 3d 62 1c f7 3c 8a d3 c2 3e f7 3b 9d 3e
       0.05575593 0.030164901 0.38052016 0.30709812
0000b0 c4 7c 3a bd cc e6 fe 3d 9d 3c d8 be e1 d0 5c 3e
       -0.045529142 0.12446365 -0.42233744 0.21564056
0000c0 74 ac 9b be bc 7a d6 be cd 0a 7c 3e 69 32 86 3e
       -0.3040501 -0.41890514 0.24613495 0.26210335
0000d0 01 6b 56 be 5f b8 f9 3c f5 b8 f0 be bc 02 e3 bd
       -0.20939256 0.030483423 -0.4701611 -0.11084506
0000e0 d0 b7 bc be fb 7c b2 be 8a 83 14 3e 93 b9 12 3e
       -0.36858988 -0.34860978 0.14503303 0.14328603
0000f0 e5 bb b7 3e fb c5 f2 3e 20 0b 88 3e b8 74 cd be
       0.3588554 0.47416672 0.26570988 -0.40128112
000100 34 d5 b6 3e d5 20 95 3e db 2f e9 3e 44 61 ac 3e
       0.35709536 0.2912661 0.45544323 0.33667958
000110 3a de 9f bd ac d7 4c 3e 7d d0 cb be 57 6b 29 be
       -0.07806058 0.20004147 -0.398075 -0.16544853
000120 d8 10 c6 3e f3 a4 16 3d 75 d9 f4 3e 4f 73 f1 3e
       0.38684726 0.0367784 0.47822157 0.47158286
000130 9c 0f 87 3d 12 6f ec 3e 28 3e 20 3e 21 30 38 be
       0.06594774 0.4617849 0.1564871 -0.1798711
000140 c8 55 d4 be 13 b7 2b 3e a5 11 ea bc 90 05 e0 be
       -0.41471696 0.16769056 -0.028572867 -0.43754244
000150 be 51 c5 3d fd a7 cf 3d 25 92 bf 3e 91 8c 46 3e
       0.09634732 0.10139463 0.37416187 0.1938956
000160 f5 ce e1 be 01 70 b1 be 31 a5 bb bd f1 fb b3 3e
       -0.44103208 -0.34655765 -0.09162367 0.35153154
000170 f2 48 84 be 0c ab 42 3e 01 06 ac 3e f6 1a ec be
       -0.25836903 0.19010562 0.3359833 -0.4611432
000180 a5 cd 27 bd 27 cd f0 3e 04 46 a8 be 5d 5c 6e 3e
       -0.040967602 0.4703152 -0.32865918 0.23277421
000190 ac af 83 3e 28 5b 75 3e e1 cd c3 3e 2f 63 c7 be
       0.25719965 0.23960555 0.3824301 -0.3894286
0001a0 0c ed 31 be ae f6 89 be 7e 57 38 be 2e 4c b0 3e
       -0.17375582 -0.26946014 -0.18002126 0.3443312
0001b0 d1 05 06 bd b5 4d b2 bb 3c 9d 53 bc 2c 49 d9 3c
       -0.03272039 -0.0054413923 -0.012915906 0.026524149
0001c0 2e 90 e7 be 2d 25 73 be e4 5e b0 be cd 32 cd 3d
       -0.45227188 -0.2374465 -0.34447396 0.10019455
0001d0 a4 83 e5 3e 04 49 67 3e 39 50 c9 be 39 ae 92 be
       0.44826996 0.22586447 -0.39319018 -0.28648546
0001e0 dc cf 5f 3e bc 1c e7 3e 13 2b 00 bd 25 c6 6b be
       0.21856636 0.4513911 -0.03129108 -0.23024805
0001f0 e0 0a 07 be 7b 7c 41 be 3e e8 a0 3e 3f f3 e3 3e
       -0.13187742 -0.18895142 0.31427187 0.4452152
000200 c0 28 d1 3e 17 d8 71 be 45 2c ad 3e 58 e6 82 bd
       0.40851402 -0.23617588 0.33822837 -0.06391591
000210 88 0b 0b be c4 0e 55 3e d3 84 d1 be c3 ae 14 be
       -0.13578618 0.20806414 -0.4092165 -0.14519791
000220 15 2a 7f be ea 8a a1 bd a9 c6 9f ba ed d7 1e 3d
       -0.24918397 -0.07887824 -0.0012189943 0.03878014
000230 a1 8f 7e 3e 62 a7 d8 be b0 a0 af 3e f2 35 28 3e
       0.24859478 -0.42315203 0.34302282 0.16426829
000240 0a 98 a3 3e c1 19 9c 3e f4 ef 8f 3d c8 01 5b 3e
       0.31951934 0.304884 0.07028189 0.21387398
000250 1b 02 a0 3e c7 ac 83 bd 12 ab 10 3e cb 17 b3 3e
       0.31251606 -0.06429439 0.14127758 0.3497909
000260 80 d8 1a 3d 62 62 96 be 77 d5 60 3e 37 ed d3 be
       0.037804127 -0.29371935 0.2195643 -0.41391918
000270 3c b6 aa 3e 0b d4 68 be d5 96 c7 3e 8d 94 9d be
       0.3334216 -0.22737138 0.38982263 -0.30777398
000280 b4 9e a0 3a b5 2b d3 bd 6f 03 7e be 93 52 ef bd
       0.0012254328 -0.10311071 -0.24805997 -0.11685672
000290 4c eb 34 3d c3 1d c8 be dd 74 c6 3e ce 1d d6 3d
       0.04416971 -0.39085206 0.38761035 0.104549035
0002a0 c9 ae e9 3e e5 a5 99 be 6d 18 5c be d5 36 fc 3e
       0.45641163 -0.3000938 -0.21493693 0.49260584
0002b0 76 29 36 3d d8 ad bb be 55 2f bf 3e 6d 97 e8 3e
       0.044473134 -0.3665607 0.373408 0.4542803
0002c0 e7 33 ab 3e 9c 6b a4 3e 8e 9a 90 3e 3d f8 ac 3d
       0.33438036 0.3211335 0.28242916 0.08445785
0002d0 68 1e 7c bd d1 a6 d0 be 02 44 d5 3e 37 84 aa bd
       -0.061552435 -0.4075227 0.41653448 -0.08325999
0002e0 f4 b4 b5 3e 15 94 97 3e 57 fb 54 3d 44 fa b7 bd
       0.3548962 0.29605165 0.05199751 -0.08983281
0002f0 5e 26 f0 3e de 99 82 be f8 01 1d be ce 9b 27 3e
       0.46904272 -0.25508016 -0.15332782 0.16368029
000300 5f 36 d5 be 1a eb b9 3e 84 52 a6 3e 62 40 12 be
       -0.41643044 0.3631218 0.3248483 -0.14282373
000310 8a ac be 3e 90 a0 a7 3e 39 96 0c 3e 3e 6d 81 3e
       0.37241012 0.32739687 0.1372918 0.25278658
000320 b8 b1 92 3e b7 73 06 be 23 f2 7b be db 17 c9 be
       0.28651214 -0.13130079 -0.24604087 -0.39276013
000330 fa 72 b3 3e 1a e3 78 be e3 bf 83 3e 5b 00 d7 bc
       0.35048658 -0.24305382 0.25732335 -0.026245287
000340 0e 66 f8 3d 39 4d c9 3d a5 c0 b5 3e d7 5d 8c 3b
       0.121288404 0.09829182 0.3549854 0.0042836475
000350 3c 2d 4b 3e a8 c1 db bb 14 25 88 be 3e fe bd 3d
       0.19841474 -0.0067064352 -0.26590788 0.092770085
000360 aa b1 ea be 36 4a 3e be 8b 0b a0 3e 91 f6 d8 3e
       -0.45838672 -0.18582997 0.31258807 0.42375615
000370 be 01 0e be 1e 9f bd be 4e f9 40 3e f1 71 9e 3e
       -0.13867852 -0.3703546 0.18845102 0.30946305
000380 c0 3b 7d 3d 87 c2 e4 3e dc 1f 3d be 6a 10 ed 3e
       0.06182456 0.44679663 -0.18469185 0.46301585
000390 e3 d6 32 be d2 04 6e be b7 eb 8e bd a4 ad da bd
       -0.17464785 -0.23244026 -0.06978553 -0.106776506
0003a0 5c 69 98 3e c3 2f b1 3e 02 c6 3d be 3d a7 ef be
       0.29767883 0.34606752 -0.18532565 -0.4680728
0003b0 f1 49 1c be 85 f3 1e be ad f1 0d be b6 47 66 bc
       -0.15262581 -0.15522583 -0.13861723 -0.014055183
0003c0 b5 79 c8 be 67 fd b4 be 40 31 13 bc 60 d0 be 3e
       -0.39155355 -0.3534958 -0.00898391 0.37268353
0003d0 9c b1 65 3e 57 c1 78 3e 5d 2d e7 3e a6 5b 64 3e
       0.22431034 0.24292503 0.45151797 0.22300586
0003e0 12 1f 8d 3e 23 69 aa 3e af ee 9e be b6 dd b9 bd
       0.27562767 0.33283338 -0.31041476 -0.09075491
0003f0 e2 c8 8d bd b6 5d a9 be e9 02 f4 bd 86 83 5a 3d
       -0.06923081 -0.33079308 -0.119146176 0.053348087

encoder.actor_encoder.net.mlp.2.weight f4 [256, 256]
000000 51 b9 2e bd c6 c1 ca 3c 19 e1 3a bd 28 eb d9 3b
       -0.0426572 0.024750602 -0.045624826 0.0066503473
000010 c4 72 32 bd 7c 52 8a 3b 52 7c cb 3d 60 ad 72 bc
       -0.04356648 0.0042212587 0.099358216 -0.014811844
000020 af 33 06 3d ab c3 9e bd 75 16 de bc b7 58 2f 3d
       0.032764133 -0.077521645 -0.027110318 0.042809214
000030 3a 8d 7d 3c 90 fe 3e bc 97 61 dc 3c fe 92 1e bd
       0.015475566 -0.011657372 0.026902003 -0.0387144
000040 c0 d5 ba bd 27 4a 51 3d f4 32 c6 3c 36 6e b9 bc
       -0.09122801 0.051096108 0.024194218 -0.02263556
000050 f7 04 2a 3d 67 bb 24 bd a4 50 18 3d cf fb 49 bd
       0.04150864 -0.040217783 0.03718628 -0.04931241
000060 55 00 04 bd 1b 8d 56 bd db 94 90 3c 96 af e1 bc
       -0.03222688 -0.052380662 0.017649105 -0.027549546
000070 2e 08 52 bd 6c 2f 51 3d cb db 1c 3d 2d 24 25 bd
       -0.051277332 0.051070616 0.03829555 -0.040317703
000080 c4 b9 80 3c 47 d9 01 bd 95 61 82 3c a3 8f 02 bd
       0.01571358 -0.031701352 0.015915671 -0.031875264
000090 d5 ea b2 3c ff 62 af bc f7 18 05 3c 34 b5 96 bb
       0.021840492 -0.02140951 0.008123628 -0.004599238
0000a0 10 2d cb bc 6d 2a 3b 3c 60 65 67 3d 2b f1 34 3c
       -0.02480176 0.011423689 0.056493163 0.011043827
0000b0 ab ac 47 bd 66 a3 ab 3c 22 7b 22 bc 74 0f 01 38
       -0.048748653 0.020951938 -0.009917052 3.077039e-05
0000c0 10 ca cb 3c 23 48 5b 3d 24 99 3b 3d 4c 68 5b 3d
       0.024876624 0.05353559 0.045800343 0.053566262
0000d0 f9 3d 1d bd 82 91 12 3d eb 15 c1 3c b9 c0 f6 bc
       -0.03838918 0.0357833 0.023570022 -0.030121194
0000e0 c4 2b a8 3b 5e b3 4e 3d 94 72 31 bd 47 21 ce 3b
       0.0051321704 0.050464027 -0.04332216 0.006290588
0000f0 08 91 98 bc 81 d0 77 bd a2 ea 6a 3d 4e 16 04 bd
       -0.018623844 -0.06050158 0.05735267 -0.032247834
000100 11 a7 88 3d ef ff 2b bd 08 1e 1b bd d3 c4 84 bd
       0.066724904 -0.041992124 -0.037870437 -0.06482854
000110 f8 48 9f 3c fe 71 57 bd 08 59 bf 3c a1 53 3f bd
       0.019443974 -0.052598946 0.023357883 -0.046710614
000120 3e d0 20 3d a2 1c b2 bb ae d5 de bc 96 0d 3c 3d
       0.039261095 -0.005435542 -0.0272015 0.045911394
000130 dc 84 95 bc 8a ca 23 3d 8a 3f 2f bd 85 70 56 3d
       -0.018251829 0.03998808 -0.042785205 0.0523534
000140 6e 3b d4 3c 26 86 78 bc 61 51 f8 3c 83 94 9e 3c
       0.025907245 -0.015168702 0.030312242 0.019357925
000150 7c df 04 3c ea 96 87 bd 68 da 80 bd 50 b1 2c bc
       0.008109923 -0.066205814 -0.06291658 -0.0105403215
000160 41 5c bf bb f2 1b b0 3d 7e 3a 1f bd 71 bd 30 3b
       -0.005839855 0.0859908 -0.038874142 0.0026968385
000170 29 c7 3c 3c 91 74 6b bd 60 b6 2a 3d a7 82 ad 3c
       0.011522093 -0.057484213 0.041677833 0.021180464
000180 22 54 f9 bc 1f 0a 98 3b 9d 97 4b bd 2a 59 a8 bc
       -0.030435625 0.0046398784 -0.049705137 -0.02055033
000190 1b a6 4c 3d 9b 71 96 3c 27 7b d0 bc 8a 58 d7 bc
       0.049963098 0.018364718 -0.025449349 -0.026287336
0001a0 6d 2d e0 bc 73 63 07 bd 7a bc 4b bd 8a c4 39 bd
       -0.02736541 -0.033053827 -0.049740292 -0.04535345
0001b0 37 cb 24 3d ec 8f 00 bd 2d a3 4d 3d e7 ce 0b 3d
       0.040232863 -0.031387255 0.050204445 0.034132864
0001c0 78 61 cd 3a 97 61 14 bb cc b4 0b bc 86 ae cf bd
       0.0015669307 -0.0022641176 -0.008526992 -0.101407096
0001d0 ca ca 02 3d 89 8a 2a bd 3f ac 63 bd cf 22 13 3c
       0.031931676 -0.041636024 -0.05558419 0.008980467
0001e0 b5 3e e3 bc 22 2b cb bb 5a f1 4e 3d d8 43 67 bc
       -0.027739862 -0.00620021 0.05052314 -0.014115296
0001f0 5a 12 a4 3b 40 e6 8b bc 3e c5 31 bd 11 45 84 bc
       0.0050070705 -0.017077565 -0.043400995 -0.016146215
000200 49 ae 52 3d 14 72 01 3d ac 6e b6 3c a2 39 ac bc
       0.051435743 0.031602934 0.02226957 -0.021023575
000210 4d 0b 2c 3b c0 fa 22 bd b5 d5 77 3d 0b fe 2f bd
       0.0026251853 -0.039789915 0.06050654 -0.042966884
000220 02 f2 e5 3c 84 5d a0 bd 6d 5e bf bb 21 36 50 bd
       0.0280695 -0.07830337 -0.005840114 -0.05083287
000230 99 9b 47 bd 0f fd 4c 3d dd 3b d0 3c 1b db 26 3d
       -0.048732374 0.050046023 0.02541917 0.0407363
000240 fb 01 d5 ba 37 52 ca 3c f9 69 af ba 7b 95 7b 3b
       -0.00162512 0.024697406 -0.0013383023 0.0038388658
000250 fd f1 0b 3d 7f aa 76 bd 40 1b c6 bc 02 4b 5f 3d
       0.034166325 -0.06022119 -0.024182916 0.054514892
000260 81 16 d0 3b 54 a0 ef 3c 89 98 c7 3b 5b 0a 90 3c
       0.006350339 0.029251255 0.0060911817 0.017583063
000270 ff bc 6c 3c ec ff 53 bd 1f 00 55 3d 08 97 ec 3c
       0.014449357 -0.051757738 0.05200207 0.028880611
000280 9c 1f 3c 3d 4d 7b 20 3d a2 e3 17 bd ba 1f cf bc
       0.045928583 0.03918009 -0.037082322 -0.025283683
000290 1e e9 18 bc 46 61 50 3a f0 d0 64 3d 94 ba 56 3c
       -0.009332923 0.0007949065 0.05586332 0.013106007
0002a0 a0 7d a4 bc 58 5a 8a bc 47 3b 4b 3d 39 81 30 3d
       -0.020079434 -0.016888782 0.04961708 0.043091986
0002b0 46 c7 6d bd 76 38 57 3d f8 49 b2 3c 35 cf 72 bd
       -0.05805137 0.05254408 0.021763787 -0.05927964
0002c0 cc 2e 2e bb da b2 40 3b 8c 69 25 3d 96 5e 16 bd
       -0.0026578186 0.002940348 0.04038386 -0.036711298
0002d0 b3 8b 81 3c c9 3c 21 bd aa 55 74 bd cb 73 4c 3d
       0.015813684 -0.03936461 -0.059652008 0.049915116
0002e0 6a 2d 54 bd da ca 74 3d 36 67 69 bc a8 df 1c 3d
       -0.051801123 0.059763767 -0.014245799 0.038299233
0002f0 c9 8a ff 3c 7e 93 15 3d 56 e6 7a 3a 95 0a 56 3d
       0.031194108 0.036517613 0.0009571066 0.052256186
000300 b5 95 27 3d 3b 88 cb bc 27 2c 5f 3d 0b c9 73 bc
       0.040914256 -0.024845233 0.054485466 -0.014879475
000310 41 2b d8 bc a9 e1 24 bd bc 0b b5 3c 21 64 48 3d
       -0.026387813 -0.04025427 0.022100322 0.048923615
000320 2a 25 e8 3c 13 3d a2 3c 69 b7 38 3b 3e 40 8f bc
       0.028338034 0.019804513 0.0028185493 -0.017486688
000330 f3 ac ab 3c 99 bb ca 3c 1c 5a bd 3c 84 59 6a 3c
       0.020956492 0.024747657 0.023114257 0.014303569
000340 e8 2a 98 bd 0a 2f 8c 3d b0 d4 56 bc 30 9d f8 3c
       -0.07430059 0.068449095 -0.013112232 0.03034839
000350 e1 bb 14 bd a1 82 97 3c 0a 55 2b 3d 15 93 b5 3c
       -0.036311988 0.018494906 0.041829146 0.02216486
000360 7a db 73 bc 5a 65 41 ba 1c 08 35 bd 8f 65 85 3d
       -0.01488387 -0.0007377468 -0.044197187 0.065135114
000370 8b 5b 9a 3d 3c b4 1f bd 0e c6 35 bd b7 e3 c7 3c
       0.07536992 -0.038990244 -0.044378333 0.024400575
000380 03 2e 3e 3d b3 08 5e bd 0b 91 45 3d 17 55 30 bd
       0.0464306 -0.054207515 0.048234027 -0.043049898
000390 c4 ef c5 bc bd ae 64 3d b5 c8 de 3c fe 55 cf 3c
       -0.02416218 0.055830706 0.027195314 0.025309559
0003a0 b9 c8 07 3d 79 81 2e 3d f5 de 20 bd 49 c7 8b 3d
       0.03315041 0.042603943 -0.03927513 0.0682512
0003b0 a5 4d 4b bd 45 ea 2e bc 65 c8 89 3c fe 46 51 bc
       -0.049634594 -0.010675971 0.016819188 -0.0127732735
0003c0 b2 a1 1a 3d 84 0a 2b 3d 33 e6 be bc eb 77 77 3c
       0.03775186 0.041758075 -0.023303127 0.015104274
0003d0 e5 ed 42 bd 74 da 4d 3d 93 71 9c bb 9b 0f 11 3d
       -0.047590155 0.05025716 -0.0047742813 0.035415273
0003e0 5a 67 6f bd c2 01 68 bd 00 c1 07 3c fa 2f e9 3c
       -0.058448173 -0.0566423 0.008285761 0.02846526
0003f0 30 7c 80 ba af 09 c8 3c 01 92 56 bd cd ac 32 bc
       -0.0009802636 0.02441868 -0.052385334 -0.010905457

encoder.actor_encoder.net.mlp.2.bias f4 [256]
000000 ed 90 74 3d e0 df 12 bd 4b e7 33 3b 50 a6 ea 3c
       0.059708524 -0.035858035 0.0027451094 0.028643757
000010 b2 ba 04 3d 68 84 58 3b 78 45 c1 bc 7d f6 14 bd
       0.03240461 0.0033037905 -0.023592696 -0.036367882
000020 e8 32 d8 3c 07 17 a4 bc 94 54 9a 3c d1 60 3a bd
       0.026391461 -0.020030512 0.018839158 -0.045502488
000030 f3 09 04 3d cc 4b 95 3d c4 7d 79 bd 4e c4 79 bb
       0.03223605 0.07289848 -0.060910955 -0.0038111391
000040 e2 39 91 bd 4f 35 02 3d 67 f7 99 bc 66 5a 91 bb
       -0.070911184 0.03178912 -0.018794728 -0.004435825
000050 72 5a 2e 3d 13 28 82 bd 03 9a 04 3d c8 b3 e0 bb
       0.042566724 -0.063553 0.03237344 -0.006857369
000060 d3 f7 d8 b9 05 db 2f 3d d3 50 c1 3b 74 2c 82 3d
       -0.00041383374 0.042933483 0.0058995276 0.06356135
000070 00 b2 7a bd 28 dd 87 bc af 7a e5 3b b9 9f 4b bd
       -0.06120491 -0.016584948 0.0070031504 -0.04971287
000080 59 9d 0e 3c 41 b7 48 bd bd b6 3c bd ee 61 76 3c
       0.008704507 -0.04900289 -0.04607271 0.015037997
000090 32 b6 74 3d e5 5d e4 3c df 63 50 3d 0a 23 57 bd
       0.059744067 0.027876804 0.050876494 -0.05252365
0000a0 73 fc 05 bd 4b 0e c8 bc 31 a0 40 b9 3a fc 4f 3c
       -0.032711457 -0.024420878 -0.00018370223 0.012694413
0000b0 bf 35 3e 3d d3 45 7a bd d7 6e 6e 3c 69 a6 79 38
       0.046437975 -0.061101746 0.014552793 5.9521208e-05
0000c0 b1 16 0a bd c0 7b e6 3b c8 83 fc bb ba be 09 3d
       -0.033713046 0.007033795 -0.0077061392 0.033629157
0000d0 b1 04 2e bd c9 b5 07 3d f4 c6 99 3d 6d a2 94 bc
       -0.042484943 0.03313235 0.075086504 -0.018143857
0000e0 33 0e 24 3d be bc 01 3d 6d 5c bb 3c 53 40 15 3d
       0.040052604 0.03167414 0.02287122 0.036438297
0000f0 3e 12 28 3d 66 b5 db 3c 72 a0 37 3d 36 99 73 bd
       0.041033022 0.026819896 0.044830747 -0.059472285
000100 e2 86 61 3d 86 26 c0 bb d2 ad 74 bc 15 52 16 3c
       0.055060275 -0.0058639674 -0.01493402 0.009174843
000110 ad bd 26 bd 59 38 0e 3c 40 d2 77 3b 06 aa 99 3d
       -0.040708233 0.0086804265 0.0037814528 0.075031325
000120 d1 6e de bc 7b 7c 20 bc 75 ed 1b bd 2b 2d ed bc
       -0.02715245 -0.009795303 -0.038068254 -0.028952202
000130 90 39 bc 3c 22 84 f7 bc 0f c0 a8 bc 6f 6a 39 3d
       0.022976667 -0.030214373 -0.020599393 0.04526752
000140 64 90 ed bb f5 45 5d 3d fe 08 08 3c bf 94 49 3c
       -0.0072498787 0.054021794 0.008302925 0.01230353
000150 83 3e 24 bd 32 d3 cd bc 85 fd d3 3c 17 9f 13 bc
       -0.04009868 -0.02512512 0.025877723 -0.009010098
000160 90 cd f1 bc e6 26 b0 3c 74 3e a2 bd 81 cd 52 bd
       -0.029516965 0.021502923 -0.07922068 -0.051465515
000170 93 5d 4e 3d 45 d5 1b bd 28 95 2f 3d 95 38 57 bc
       0.050382208 -0.038045187 0.042866856 -0.013136049
000180 46 0b 8f 3d af cf ae 3c cd 79 4c bd 35 ff 74 bd
       0.06984572 0.021339266 -0.049920846 -0.059813697
000190 37 1f 95 3c e2 68 18 bd cb 13 6f 3c 52 db 8d 3d
       0.018203361 -0.0372094 0.014592121 0.06926598
0001a0 53 68 b1 3c 41 62 19 3d 6e 1d 3f bd 3d c6 43 bd
       0.021656191 0.037447218 -0.046658926 -0.047796477
0001b0 9e 21 35 bc a8 26 c2 3c d4 5d 93 bd 5d 10 61 bd
       -0.011055378 0.023700073 -0.07195631 -0.054947246
0001c0 82 3d 0a 3c 3e ab 8a bd 81 ea 13 bd 97 74 7a bd
       0.008437516 -0.06770943 -0.036112312 -0.061146345
0001d0 87 9c 22 3c e0 6d d2 bc d4 6a 19 3a 80 0f 79 3d
       0.009925014 -0.025687158 0.00058524054 0.060805798
0001e0 4d 1e 12 3d 37 7e b7 bb 2f e2 fd bb 98 57 09 bd
       0.03567343 -0.005599763 -0.0077479105 -0.0335308
0001f0 b9 d9 d4 bc 77 f4 f7 3b bb 95 f5 bc 4d 79 08 bd
       -0.025982725 0.0075669843 -0.029978624 -0.033318806
000200 81 0e 1a 3d 3c ca f7 bb 64 e2 03 3d 83 2c 4f bb
       0.03761149 -0.00756195 0.032198325 -0.0031612224
000210 8d 9f e4 bc 95 46 15 bc 48 e0 c0 bb 22 2d 70 3d
       -0.027908111 -0.009111066 -0.0058861114 0.058636792
000220 9d d9 4e bd aa 4c f6 bb c8 a2 d7 bc 58 f5 62 3b
       -0.0505005 -0.0075164633 -0.026322737 0.00346311
000230 92 6e 1d 3d c7 81 46 bd 93 57 c7 3a 4f b7 46 bc
       0.038435526 -0.04846361 0.0015208594 -0.012128665
000240 ca 32 c3 3c 59 97 2c bd 01 35 fa 3c 7c 2f 5d bd
       0.023827929 -0.042136524 0.030542852 -0.054000363
000250 24 6b 83 bc c1 4b 85 bd 39 dd 46 bd a7 32 43 3d
       -0.0160423 -0.065085895 -0.048550818 0.047655728
000260 3d 2d dc 3b 79 69 2b 3d de a4 35 3c 1c 9a 54 bd
       0.00671926 0.041848633 0.011086671 -0.051904783
000270 17 7a fc 3c 78 d3 4b bd 32 06 b3 bc 06 53 51 3d
       0.030819936 -0.04976222 -0.02185354 0.051104568
000280 3e 89 67 3d 2f 8d 1e 3d 9d bd 0f bd 43 b6 45 3d
       0.05652737 0.038708862 -0.03509294 0.04826952
000290 13 49 9b 3b 2e dc 76 bd bd 91 28 bd 57 55 57 bd
       0.0047389357 -0.060268573 -0.04115461 -0.05257162
0002a0 68 f5 49 bd 90 0a 91 3d 74 f7 16 bd 31 a5 08 3c
       -0.049306303 0.07082093 -0.036857083 0.008340166
0002b0 a1 88 c3 bc 8b 9a 04 3d da 16 8c 3c d1 41 ac 3b
       -0.02386886 0.032373946 0.01710074 0.0052568694
0002c0 71 b7 fc bc 03 e6 99 3c 34 59 89 3d 57 d8 7d bd
       -0.03084919 0.018786436 0.06706467 -0.061973896
0002d0 d2 05 a3 bc 1c c2 3a bc e5 f4 26 3d 6e ad 6e bd
       -0.019900236 -0.011398818 0.040760893 -0.058270864
0002e0 f8 51 ab 3b 7e 58 c3 bc 7a 02 5d bd a6 da 08 bd
       0.0052282773 -0.023845907 -0.05395744 -0.033411644
0002f0 f3 d4 90 3c 4c b2 aa bc 38 ac 48 bd b3 71 63 bc
       0.017679667 -0.020836972 -0.048992366 -0.0138820885
000300 c3 68 64 3d 03 6a 6e bd 1d 28 3e 3d c7 63 96 3b
       0.05576397 -0.05820657 0.046424974 0.004589531
000310 f1 2c 8a 3d a2 d9 bb 3c dd f6 e3 3c cc 78 01 bd
       0.06746853 0.022930924 0.027827675 -0.03160934
000320 61 88 80 3d b9 d9 36 bc 15 fd d1 3c 84 cd 0a bc
       0.06276012 -0.011160308 0.025633374 -0.00847185
000330 44 8c db 3c 35 fa 22 3d 2c 08 90 bd d0 b5 31 3d
       0.026800282 0.039789397 -0.07032809 0.04338628
000340 4c f8 98 3d 18 87 33 3d 66 3b 7f bb f7 de 04 3d
       0.07469234 0.043830007 -0.0038945316 0.0324392
000350 f6 e0 41 3c 38 d8 4a bd bb 96 0e 3d 25 f7 0c bd
       0.01183342 -0.04952261 0.034811717 -0.034415383
000360 8c 0b 09 bd 65 eb 22 3d 43 fc ea 3c 6d 50 17 3d
       -0.033458278 0.03977527 0.02868474 0.036941934
000370 57 c7 60 3d b9 92 02 bd 79 6c 06 bc ec 9b 17 3c
       0.054877605 -0.031878207 -0.008204573 0.009253483
000380 5a e8 df bc d2 90 4d 3b d6 a9 3b 3d f0 2e bb bb
       -0.027332474 0.0031366837 0.045816265 -0.0057123825
000390 63 d5 05 bc f7 91 ae bc cb 83 da bc a2 81 bd 3c
       -0.008168551 -0.021309836 -0.026674172 0.023133103
0003a0 97 6b da bc 55 e1 12 3a 45 f0 10 3d 3e 28 6d 3d
       -0.026662631 0.0005603035 0.03538539 0.057899706
0003b0 37 57 af 3c 0f c6 7b bd fd 51 bb bc 35 10 67 3a
       0.021403892 -0.06146818 -0.022866243 0.0008814366
0003c0 f3 7a 14 bd 8c 2d 7a 3d e4 01 04 bd 90 7c 57 bd
       -0.036250066 0.061078593 -0.032228366 -0.052609026
0003d0 6d 4c 86 3d e4 7c 0d bd ca 3e 63 3c 85 db 47 3d
       0.06557546 -0.034542933 0.013869951 0.048793335
0003e0 30 7e cf 3a 24 2b e3 bc b7 d7 49 3d 42 d0 d7 3c
       0.0015830453 -0.027730532 0.049277987 0.026344422
0003f0 e5 89 56 3c 1c 49 2f 3d fd 44 42 bd 9d e3 44 bd
       0.0130944 0.042794332 -0.047429074 -0.04806863

encoder.critic_encoder.net.mlp.0.weight f4 [256, 4]
000000 0a a2 ec 3e e5 a5 3f be 60 54 81 be 72 36 94 be
       0.46217376 -0.18715627 -0.25259686 -0.28947788
000010 b3 23 d2 be 19 a1 95 3e dc 68 0e 3f 2c ff da 3e
       -0.4104286 0.2922447 0.5562875 0.42772806
000020 d8 50 b2 3e 8f d9 72 be 70 0d 08 3f 05 e3 ca 3e
       0.34827304 -0.23715805 0.53145504 0.39626327
000030 89 60 a1 be a8 0c 9d be b9 4c 4f 3e e4 e4 27 3e
       -0.31518963 -0.30673718 0.20244111 0.16395909
000040 e0 d0 c9 3e 20 8e 03 bf f4 6b 0b bf 79 7b 36 be
       0.3941717 -0.5138874 -0.544616 -0.17820539
000050 45 5c 71 be b3 3f b1 be f4 95 a5 3e 69 cb bd 3d
       -0.23570354 -0.3461891 0.32340968 0.09267313
000060 65 89 8e be 9b c2 93 be 41 04 c4 be e9 ed 8d be
       -0.278392 -0.2885941 -0.38284495 -0.27720574
000070 87 9e 8f 3b 7e 13 a2 3e 9e b8 ca 3c f4 cb 5c 3e
       0.0043829116 0.31655496 0.024746235 0.21562177
000080 01 65 b9 3d 74 5f 8d 3e 5c fd e7 be 89 cc ee bd
       0.09052468 0.27611887 -0.45310485 -0.11660106
000090 f7 68 23 be 0e 0a be be 9b 37 df be 8b 32 d6 3e
       -0.1595801 -0.37117046 -0.4359711 0.41835436
0000a0 6d 95 ab be a5 1c e2 be 2d b1 06 3f bb 3e 1b be
       -0.3351244 -0.4416248 0.526141 -0.15160649
0000b0 2b 5a c9 3e 38 32 68 3d f9 61 bd 3d 8c 04 90 3e
       0.39326605 0.056688517 0.092472024 0.2812847
0000c0 6d 64 02 bf 34 d0 e1 be 0f 36 e9 bd 4c a6 ce 3e
       -0.5093449 -0.4410416 -0.11387264 0.4036125
0000d0 fd 5a 22 3e e0 cc 33 3e 77 18 04 bf 88 51 38 be
       0.15855022 0.17558622 -0.5159983 -0.17999852
0000e0 fc 13 db 3e 51 c9 f2 3d 8e 97 cd be 6b 2b d6 3d
       0.42788684 0.11854804 -0.4015469 0.104575
0000f0 d1 ad bc 3e 25 59 71 be cf 45 02 bf 5c c4 e2 3d
       0.3685136 -0.23569162 -0.5088777 0.11072609
000100 26 69 0a 3f 95 0e 01 bf b8 44 02 3e da e7 e6 be
       0.54066694 -0.50412875 0.12721527 -0.45098764
000110 90 e5 c2 3e 7d fc 6a 3e 31 02 b8 3e 04 f6 e0 be
       0.38065767 0.22947879 0.35939172 -0.43937695
000120 ed 4d 11 be fd 4e 9e be ef 36 c2 bc a2 c9 b4 3d
       -0.14189883 -0.30919638 -0.023707835 0.08827521
000130 c4 93 09 bf 01 d8 9e bd a3 ec 39 3f 68 1f f0 3e
       -0.537411 -0.07756043 0.72626704 0.4689896
000140 04 0e 92 be 4c ab 68 be 22 be 1c 3f f6 ec c9 3e
       -0.28526318 -0.22721595 0.6122762 0.394386
000150 95 e2 ae 3e df 38 9f be c0 df 3b be aa 4f 9c be
       0.34157243 -0.31098077 -0.18347073 -0.3052953
000160 da 60 95 3e 21 d0 66 be a9 7e f4 3d 04 d9 2f be
       0.29175454 -0.22540332 0.11938221 -0.17172629
000170 d8 e1 1c be 89 83 75 3d 44 5c 04 3f 1b af 24 be
       -0.15320528 0.059939895 0.51703286 -0.16082422
000180 bd 12 e3 3e 53 bb 00 3e 68 af 59 3c aa e0 8b bd
       0.44350234 0.12571459 0.013286449 -0.06829961
000190 1e 7c c6 3e 77 2d 3a 3e 45 83 cd 3e 34 ab da 3e
       0.3876657 0.18181406 0.40139213 0.42708743
0001a0 3e c9 2e bd 50 e0 6a 3d 64 47 b2 3e 2c 99 b4 bd
       -0.04267239 0.057342827 0.34820092 -0.08818278
0001b0 9c c4 50 be 82 39 30 be 7c 87 0d bf bc 85 87 be
       -0.203875 -0.17209437 -0.5528486 -0.2646922
0001c0 7a 43 80 3e 71 eb 41 3e a7 10 86 3e 28 69 28 3e
       0.2505148 0.1893747 0.2618458 0.16446364
0001d0 e1 ae 97 3e 00 89 51 be 38 ad 4e bb 4c 47 ad bd
       0.2962561 -0.20462418 -0.0031536352 -0.084608644
0001e0 46 5c e8 3e b3 64 a7 bc 9c 06 c6 3e bb b4 dc be
       0.453829 -0.02043376 0.38676918 -0.43106636
0001f0 6e 24 09 3e 72 6a c7 be 4e 52 7c 3e 23 ac c7 be
       0.13392803 -0.389484 0.24640772 -0.38998517
000200 5b 0a 56 3d 52 c2 a5 be ec df 0a 3f d5 ef 21 3e
       0.05225597 -0.32374817 0.5424793 0.15814145
000210 e8 b1 26 3e 74 a5 35 be 66 71 70 3e af c2 4a be
       0.16278803 -0.17738897 0.23480758 -0.19800828
000220 9e 9e 07 3d c2 08 8b be 5d 08 90 3e 7e a3 db 3d
       0.033110254 -0.2715512 0.2813138 0.10724543
000230 2e bc 0a bf 44 0c df be 4c 2d 1f 3f ce a9 ab 3d
       -0.5419339 -0.43564045 0.6217849 0.08381997
000240 fa b9 02 bf d0 f4 f2 be f0 b5 d2 3e 9f 20 73 3e
       -0.5106503 -0.47452402 0.41154432 0.23742913
000250 d2 d9 a2 3e 83 40 fc bd 0c 84 5f be 6a 94 1c 3e
       0.3180681 -0.12316992 -0.21827716 0.1529099
000260 c9 e1 a1 be 7b 9b 9a be 9a ac d0 3e 70 68 49 be
       -0.31617573 -0.30196747 0.40756685 -0.19668746
000270 13 87 24 3e 2e 33 97 3e 2f d5 d9 3e 8c d7 a9 3d
       0.16067152 0.29531235 0.4254546 0.082930654
000280 cd 60 f2 3e b0 de 4b bb a6 37 66 3e 03 a0 ae be
       0.47339478 -0.0031108074 0.22482166 -0.34106454
000290 5b 68 cf 3e 55 be 10 bf 6f cd 21 bd 64 87 94 bd
       0.40509304 -0.56540424 -0.039502557 -0.07252386
0002a0 e2 af fc 3e 52 f2 1c be b6 72 55 3e da 0d 67 3d
       0.49352938 -0.15326813 0.2084454 0.056409694
0002b0 16 1b 6e 3e a4 67 db 3e 57 a7 e1 3e 22 27 77 3e
       0.2325252 0.4285251 0.44072983 0.24136022
0002c0 0f cf e1 be 91 7e 2f be b3 73 74 3d c6 c9 2c 3e
       -0.44103286 -0.17138125 0.059680652 0.16873845
0002d0 a8 20 5f bd a3 ca 67 3e d1 94 22 3f 89 b7 10 3e
       -0.054474503 0.22635894 0.63508326 0.14132513
0002e0 ac db 49 bd a1 3e 9b bc 2c a3 46 be 92 18 85 bd
       -0.04928176 -0.018950762 -0.19398183 -0.06498827
0002f0 9a 7d a4 be e3 26 c1 3e 7c 45 48 be 65 c4 8b 3e
       -0.32127076 0.3772498 -0.19557756 0.27298275
000300 b3 51 cd be 26 34 98 be e7 29 c9 be cf 67 5f be
       -0.40101394 -0.29727286 -0.3928978 -0.21816944
000310 04 41 83 3d 5e 7e 9f 3e 20 b9 c6 3e e8 28 c5 3c
       0.06408885 0.31151098 0.38813114 0.024067357
000320 55 1e 93 3e 97 c6 4a 3c a7 5b 40 be 6b 78 09 3e
       0.2873408 0.012376449 -0.18784963 0.13424842
000330 9d a5 9c 3e 4e 4a ae be 82 82 ef 3e 46 8c 94 bd
       0.30595103 -0.34041065 0.46779257 -0.072533175
000340 5b 37 f7 3e 74 d2 61 be 05 8f 51 be 3b 1d b1 3e
       0.4828442 -0.22052938 -0.20464714 0.34592614
000350 62 65 97 be 1d e9 3a bd 0f bb a8 be e2 d8 76 3d
       -0.29569536 -0.04563247 -0.32955214 0.06026543
000360 51 09 02 3f 84 58 29 be 7d 93 0d be 3a 85 65 be
       0.50795466 -0.16537672 -0.13825794 -0.22414103
000370 04 42 37 3e 96 5c 14 3c 80 7e b4 be b7 b1 82 3e
       0.17896277 0.009055277 -0.35252762 0.2552621
000380 96 b7 06 bf ce 0e 35 3e 9f d6 32 3e 23 b3 a9 3e
       -0.5262388 0.17681429 0.17464684 0.33144483
000390 94 ff 60 be 00 f6 49 3e 4e 5b ea 3e 2d 8a b7 3e
       -0.21972495 0.19722748 0.45772785 0.35847607
0003a0 76 d9 89 3e 9f 47 1f be 3f af 5c be 4d e4 d7 3e
       0.26923722 -0.15554665 -0.21551226 0.42166367
0003b0 66 45 bd 3e cd d8 fe be 6f 61 63 bd ea c7 79 3e
       0.3696701 -0.4977478 -0.05551284 0.24392667
0003c0 38 d3 85 3e a3 72 85 3e 4f 4c 9c 3e 62 16 94 be
       0.2613771 0.26064023 0.3052697 -0.28923327
0003d0 96 e7 a5 3e f8 d1 d1 3e 23 cd 6f 3e 1d ca 89 be
       0.3240325 0.40980506 0.23418097 -0.26912013
0003e0 ad 46 e7 3e 06 85 13 3e 9b d3 41 be 60 62 02 3f
       0.4517111 0.14406213 -0.18928377 0.5093136
0003f0 b4 bd 6f be 19 63 9e 3c c2 24 04 3f 67 6d 2b be
       -0.2341221 0.019334363 0.5161859 -0.16740952

encoder.critic_encoder.net.mlp.0.bias f4 [256]
000000 0d f0 12 bf 95 79 f0 be 81 12 ee be fc 59 dc be
       -0.5739754 -0.4696776 -0.46498492 -0.43037403
000010 15 d8 f9 be bc ce a6 3e 53 f2 c9 bd c9 2b ec 3e
       -0.4879767 0.325796 -0.09860673 0.46127155
000020 43 73 cc bd 73 46 65 3e 2d 13 78 3e d9 b7 f6 be
       -0.09982922 0.22390155 0.24226065 -0.4818714
000030 ae 88 b6 3e 3f 1b 05 3f 0b d1 17 3f c0 ff f2 be
       0.35651153 0.519947 0.5930335 -0.47460747
000040 09 8f 94 3e 74 af aa 3e 45 58 b1 3e da dc 6e be
       0.29015377 0.33336985 0.34637657 -0.23326436
000050 2c 34 83 be 37 66 a5 3d 80 d6 b4 be 1f 6c e2 3e
       -0.2562574 0.080761366 -0.353199 0.44223115
000060 98 09 17 bf f2 45 e1 be 2a f1 6c 3e 6d 06 68 3c
       -0.58999014 -0.43998677 0.23138872 0.014161688
000070 f2 83 c0 3e 28 c9 ce 3e d6 15 04 bf 1b 08 9b be
       0.37600666 0.40387845 -0.5159582 -0.3027962
000080 f7 b0 82 3e ad 07 f9 3e 4b a0 c1 3e b1 7c 8e 3a
       0.25525638 0.4863867 0.37817606 0.0010870901
000090 28 b5 45 3e a1 76 4c 3e 48 81 a1 3e 47 ae 9e 3e
       0.19307387 0.19967128 0.31543946 0.30992338
0000a0 48 63 85 be 0e 22 e9 bd c3 af e4 be a2 cd b7 3e
       -0.26052308 -0.113834485 -0.44665346 0.35899073
0000b0 11 f9 e5 3e fd b6 c4 be 22 65 d5 3e 58 0c 34 be
       0.44916585 -0.3842086 0.4167872 -0.17582834
0000c0 48 98 f3 be 61 40 85 3e 3f 5c d6 bd f3 bb 08 3e
       -0.4757712 0.2602568 -0.10466813 0.13352947
0000d0 45 72 7a 3e 5b 66 52 bb 15 fe d7 be dc 80 cc 3e
       0.24457653 -0.0032104466 -0.42186037 0.39942062
0000e0 dd 4f 0d 3f 24 47 ec be c0 18 da be 2f 85 b8 be
       0.55199987 -0.46148026 -0.42597008 -0.3603911
0000f0 77 a0 c2 3e c6 bd 09 3f 58 31 c1 3e 5a d5 91 3e
       0.3801305 0.53805196 0.3773296 0.28483087
000100 89 a8 ca 3d 42 e3 10 3f a4 79 9b be ba f2 b2 3e
       0.09895427 0.5659677 -0.30366242 0.3495081
000110 3c 5f 44 bd a3 28 12 3e a2 16 fd 3d 15 82 9b 3e
       -0.047942385 0.14273314 0.123578325 0.30372682
000120 02 88 4c 3d ce 34 82 be a4 c3 10 bf 24 c2 09 3f
       0.049934395 -0.25430912 -0.56548524 0.5381186
000130 2a cc 9e be 33 5c 10 bc d9 4c 38 3e 4e b8 da be
       -0.3101514 -0.0088110445 0.17998065 -0.42718738
000140 a0 bb 5c be f8 6b 01 be 24 77 b4 3e 8c 18 0e 3f
       -0.21555948 -0.12638843 0.35247147 0.55506206
000150 52 e4 9e 3d c6 56 18 be cd 03 0b bf 93 6c 04 3f
       0.077583924 -0.14876851 -0.54302675 0.5172817
000160 63 4f f4 be 3e 3a ce 3e 80 ed ef be 8e 6e ec 3e
       -0.47716817 0.4027881 -0.46860886 0.46178097
000170 77 3b a1 be 16 ce fd 3e 8f 41 03 3f a1 87 5f 3e
       -0.3149068 0.49571294 0.5127191 0.21829082
000180 54 51 96 3e ae da 81 be 27 a3 09 bf 60 2d 2f 3e
       0.29358923 -0.25362152 -0.53764576 0.17107153
000190 00 2b ed 3e 5d e0 27 be 86 3e 0a bf d2 4b 55 bd
       0.4632187 -0.16394182 -0.54001653 -0.05207426
0001a0 79 d4 14 3f 43 fd 00 3f 00 07 78 3e 64 9d f4 3e
       0.5813671 0.50386447 0.2422142 0.4777633
0001b0 fc c7 93 3c e3 44 ba 3e aa d0 31 be fd ef 81 3e
       0.018039696 0.3638068 -0.17364755 0.2537841
0001c0 c2 75 71 3e 28 f7 05 3f 5e 18 a3 3d 11 c0 db be
       0.23580077 0.52330256 0.07963632 -0.42919973
0001d0 cd 52 bc 3e f1 56 6b 3e c2 72 c9 be 45 04 85 be
       0.36781922 0.22982384 -0.39345366 -0.2597982
0001e0 2c 70 11 3f d2 32 72 3e 07 c1 1e be b6 ff a0 3d
       0.56811786 0.23652199 -0.15503322 0.07861273
0001f0 fa 2b 04 be a6 ff 68 be c2 c7 2e be b9 2c 1e be
       -0.129074 -0.22753772 -0.17068389 -0.15446748
000200 86 ea 88 be 0d be 71 be f2 5d bb bd 24 8e 5b be
       -0.26741427 -0.23607655 -0.09148778 -0.21440941
000210 a0 01 17 3f f9 18 09 3f 45 d1 21 bd 1a 6b e3 3d
       0.58986855 0.5355373 -0.039506216 0.111044124
000220 1b 8e d5 3e 2a 7e 16 3f 1c c0 fa be c3 b3 03 3f
       0.4170998 0.5878626 -0.48974693 0.5144617
000230 23 ea df be 62 1d d0 3e f9 c1 97 be b2 10 1a bf
       -0.4373332 0.40647417 -0.29640177 -0.60181725
000240 4f f9 11 3f 23 6a e1 be 57 6f b7 3d d7 25 0b bd
       0.5702104 -0.44026288 0.08956783 -0.033971634
000250 5c 77 b1 be e0 99 cc 3e 58 03 f8 bd bf 62 d6 bd
       -0.34661376 0.39961147 -0.12110013 -0.10468053
000260 cb 55 a0 3e ba f5 09 bf 5c 7c b6 be 04 32 ca be
       0.31315455 -0.53890574 -0.35641754 -0.39491284
000270 bd 4f 01 bf 72 e3 3b be ea dd e6 be 9d c6 0e 3f
       -0.50512296 -0.18348482 -0.45091182 0.5577181
000280 81 dd 42 be c2 bc 6e 3e 25 ef e4 be c6 bf cf 3e
       -0.1902981 0.23314193 -0.44713703 0.40576
000290 94 f5 9e be 63 db 2d bd ea 33 6e 3d 50 22 c2 be
       -0.31046736 -0.04244555 0.058154978 -0.37916803
0002a0 fc 67 a3 be e7 86 d4 be 25 63 e5 be 6c c2 09 3e
       -0.3191527 -0.41509172 -0.44802204 0.13453072
0002b0 12 90 dc 3e 49 45 f0 3e d0 e6 a5 be d4 84 b3 3e
       0.43078667 0.4692786 -0.32402658 0.35062277
0002c0 ca 22 b4 be f8 8e 03 bf 53 62 ca be 4a bf ba 3d
       -0.35182792 -0.5139003 -0.3952814 0.09118517
0002d0 22 02 49 be 33 48 da 3e 7e 87 2c 3e e3 55 d0 be
       -0.1962972 0.4263321 0.16848561 -0.40690526
0002e0 08 b9 c9 3e cd 24 82 3e 53 20 0e 3f 7f 47 c9 3a
       0.3939898 0.25418702 0.5551807 0.001535639
0002f0 b4 e6 e0 3d 73 7e e9 3e e3 33 af 3e 34 28 0c 3f
       0.10981503 0.45604286 0.34219274 0.54748845
000300 1d 30 ba be ef 27 48 be b9 8e 8a be 9e 06 89 be
       -0.36364833 -0.19546483 -0.27062014 -0.2676286
000310 c2 ce 04 3e c8 20 8d 3e 0b d5 c1 3e 6c 40 ae 3e
       0.12969497 0.27564073 0.3785785 0.34033525
000320 48 0a 79 bd eb 83 98 bd 7b e0 cc be e4 63 85 be
       -0.06080082 -0.07447036 -0.40015015 -0.26052773
000330 9d 13 0d 3f 23 86 dd be 52 a2 83 be 23 b2 b4 be
       0.5510805 -0.432664 -0.25709778 -0.35292158
000340 5b 6f 08 3f dd 6d 14 bf bd ae 46 3e f1 15 0d 3f
       0.53294915 -0.5798014 0.19402595 0.55111605
000350 0f a8 1a bf 66 8d 64 be 4a 8d c7 be 68 0d 0b 3f
       -0.6041269 -0.22319564 -0.38974983 0.5431733
000360 0e 7c c0 be ee 85 c6 3e 9d da 19 be 41 b1 02 3f
       -0.37594646 0.38774055 -0.150248 0.5105172
000370 32 68 c8 3e 28 73 a4 3e 31 d3 0a 3f a0 dc e8 be
       0.39141995 0.32119107 0.542285 -0.45480824
000380 77 f9 06 3f e2 03 01 bf b8 69 a9 3d 4a 78 c3 be
       0.52724403 -0.5039655 0.082721174 -0.3817771
000390 11 ec 37 3e 86 81 0c 3f a8 00 66 be c1 0c fa 3c
       0.17961146 0.5488514 -0.22461188 0.03052366
0003a0 4a e4 a1 be 1f cf da be 93 1b 64 3e f2 77 c0 3e
       -0.31619483 -0.42736146 0.22276144 0.3759151
0003b0 97 df 50 3e 97 8f 10 bf 53 b2 7c be c3 9b d5 3d
       0.20397793 -0.564691 -0.246774 0.104301
0003c0 41 eb 0a bf f4 d8 92 bd a7 cf 99 3e ca f0 1b 3e
       -0.5426522 -0.07170287 0.3004124 0.15228572
0003d0 d1 9b c3 3e 3b ac 28 bd 25 8f 69 be 05 23 cc 3e
       0.38204816 -0.041179877 -0.22808512 0.39870468
0003e0 f1 4c f9 3e 09 5e 07 3f 28 36 ec be e3 7f 8c be
       0.48691514 0.5287786 -0.46135068 -0.2744132
0003f0 fe 78 52 be 05 d9 f0 be a3 20 cd 3d 11 16 05 be
       -0.20553967 -0.47040573 0.100159906 -0.12996699

encoder.critic_encoder.net.mlp.2.weight f4 [256, 256]
000000 9e a1 33 be 93 7c 9b 3b 61 d9 de bd c9 8e 68 bd
       -0.17542121 0.004745075 -0.108813055 -0.056776796
000010 e7 e8 0a be 1b 55 9f 3d c4 e3 ff bc 98 5e 09 3e
       -0.13565408 0.077799045 -0.031236537 0.13414991
000020 e5 cb 99 bc 85 a6 45 3d 90 c4 9b 3d 8f 6e f5 bd
       -0.018773982 0.04825451 0.07605851 -0.11983978
000030 23 d7 ac 3d 39 9f 8b 3d f5 ba 27 3d 3c 9f 56 bd
       0.084394716 0.06817479 0.04094978 -0.05239795
000040 d8 6b c4 3d 0b 27 45 3d 29 10 00 3e b2 07 71 3b
       0.09590882 0.048132937 0.12506165 0.0036778268
000050 32 b1 3c 3a 91 81 3a bd 9a 9c 05 be 6e 4d cc 3d
       0.0007198035 -0.04553372 -0.1304802 0.09975706
000060 9f 98 fd bd 24 09 e8 bd f4 b6 6e 3d 1d 32 62 bd
       -0.12382626 -0.113298684 0.058279946 -0.055223573
000070 d9 ac ed 3d 74 fa 96 3d 44 86 b8 bd d5 fc 21 bd
       0.11605234 0.07371989 -0.09009984 -0.03954776
000080 86 08 b1 3d 53 a2 43 3d e0 c1 73 3d 17 04 e8 bc
       0.08644204 0.047762226 0.059511065 -0.028322263
000090 9b fe 4a 3c e4 17 9e bc 21 47 a8 3d 46 2e a3 3d
       0.012389804 -0.019298501 0.08216692 0.0796781
0000a0 7b b8 13 3c d6 4c 57 bd 5e bb d6 bd aa f5 42 3d
       0.009016152 -0.05256351 -0.10484956 0.047597565
0000b0 84 2c b9 3d a2 8b 13 be dd db c4 3d b3 ec 69 bc
       0.09041694 -0.14408734 0.09612248 -0.014277625
0000c0 7e d2 58 bd 22 c3 b2 3c 48 04 08 bd 5e eb 17 3c
       -0.052935116 0.021821562 -0.033207208 0.0092724245
0000d0 0d 7a 52 bb 2d 87 98 bd 9d eb c3 bd 50 04 08 3b
       -0.0032116205 -0.07447658 -0.09566424 0.0020754524
0000e0 29 59 c6 3d 16 86 d5 bc 76 02 90 bc 06 ad ab bd
       0.09684975 -0.026064914 -0.017579298 -0.08382611
0000f0 37 68 c3 3d a6 f3 ee 3d ce c7 78 3c 67 ce ed 3d
       0.09541362 0.11667566 0.015184356 0.11611634
000100 26 35 ff bc a9 fb 12 3d 82 36 41 be 46 a8 74 3d
       -0.031153273 0.035884533 -0.1886845 0.05973079
000110 01 17 c4 bc b7 21 5a 3c c8 1e bc 3d 68 1f 70 3d
       -0.02393675 0.013313702 0.091855586 0.0586237
000120 df eb 02 3d aa cf df bd 87 4d 0f be 86 b6 ec 3d
       0.031963225 -0.10928281 -0.13994418 0.11558251
000130 bb 24 ae bd d9 ea 4f 3c dd 7d 47 3d 2c 47 b6 bc
       -0.085030995 0.012690269 0.048704017 -0.022250734
000140 74 e1 c4 bd 85 d3 98 bd f8 89 c4 3d b3 0a e9 3d
       -0.09613314 -0.07462219 0.09596628 0.11378994
000150 ee 55 91 3d 0e 26 da ba ad 5d dc bd 1c 51 b0 3d
       0.07096468 -0.0016643421 -0.10760055 0.086092204
000160 80 21 38 bc 80 c9 21 3e 95 1e b2 bd e7 56 f7 3d
       -0.011238456 0.15799522 -0.08697239 0.12077122
000170 1c fb 7d bd 24 0f da bb 20 19 0f 3e 29 23 82 3d
       -0.062007055 -0.006654637 0.13974428 0.063543625
000180 9d b4 df 3d a5 71 02 be 26 4c f3 bc f5 95 8c 3c
       0.10923121 -0.12738664 -0.029699396 0.017161349
000190 23 4d 29 3d bb bd c8 bc 00 fc c5 bd 25 19 31 bc
       0.04133333 -0.024504533 -0.09667206 -0.010809218
0001a0 e7 50 b2 3d 9d 26 02 3e fd 0f a1 3d 4e 45 c3 3d
       0.08706837 0.12710042 0.07864378 0.09534703
0001b0 51 99 25 3d d0 14 b8 3d c9 3e 91 3c a2 fa 8d 3d
       0.040429417 0.08988345 0.017730134 0.0693257
0001c0 75 e9 25 3d 8f 01 69 3d 28 5b a4 3d 83 ab 27 be
       0.040505845 0.056886252 0.08025199 -0.1637402
0001d0 6b f5 94 3d 2c 3b 2b 3d 31 4f b7 bd 88 9e f5 bd
       0.07273372 0.041804478 -0.089506514 -0.11993128
0001e0 bd 70 d0 3d 58 88 64 3d 81 3b 8b bd c3 4c 05 3b
       0.10177753 0.05579409 -0.06798459 0.0020339943
0001f0 80 30 ef bc 83 37 9f bd 65 73 20 bd fa ef 7f bd
       -0.029197931 -0.0777426 -0.03917255 -0.06248472
000200 b8 4a 77 bd 0c a3 e4 bd 9c 6c 66 3d 23 d2 bc bc
       -0.06037399 -0.11163911 0.05625592 -0.02304942
000210 eb 20 69 3d 1a 0a 7e 3d ce c1 29 bd 45 f2 9e 3d
       0.05691616 0.062021352 -0.041444592 0.07761053
000220 db 92 be 3d a5 a2 f4 3c 54 e7 a6 bd af 96 d4 3d
       0.09305354 0.029862711 -0.08149591 0.10380303
000230 70 41 ea bc 69 a9 81 3d 42 a6 80 bd d4 ac 47 bd
       -0.028595656 0.063311405 -0.06281711 -0.048748806
000240 9b 58 a3 3d b3 65 16 be 41 9c e4 bc 6f 17 8c bd
       0.079758845 -0.14687233 -0.027906539 -0.06840407
000250 bb ec f6 bd c2 94 03 3e 0d 11 01 bd 31 32 af bc
       -0.120568715 0.12849715 -0.0315104 -0.021386238
000260 1f 23 9c 3d 6a 68 af bb 35 0e 19 bd e7 7c 8c bd
       0.07623886 -0.0053530233 -0.037367065 -0.06859761
000270 ee 1a 53 bb e4 50 ee bd f2 b3 e9 bd d0 40 cc 3d
       -0.0032212096 -0.116365224 -0.11411275 0.099732995
000280 08 9b 3f bd 85 5e 8f 3d cc 27 0c be 8f 41 9c 3d
       -0.04677871 0.0700045 -0.13687056 0.07629692
000290 a7 1c fa bb d9 ed f7 bb 30 1d af 3c 91 21 15 be
       -0.00763281 -0.0075661954 0.021376222 -0.14563586
0002a0 e0 c7 d2 bd 88 37 7d bd 13 ab a2 bd 66 15 b2 bc
       -0.102920294 -0.061820537 -0.07942786 -0.02173872
0002b0 6e 95 9f 3d 6f 79 f5 3c dc 6c 9f bc dd 44 23 3d
       0.07792173 0.02996513 -0.019461088 0.039860595
0002c0 63 8d c0 bc 71 8c 88 bd c6 e6 8b bd 2a 77 d9 3d
       -0.023504918 -0.06667412 -0.06831126 0.10618432
0002d0 2a ec b3 bd 46 17 b1 3d 4e 99 e1 3c 9a d8 86 bd
       -0.08785279 0.08647017 0.027538922 -0.06584282
0002e0 52 48 6e 3c 69 9e 93 3d a7 c2 e8 3d cf 99 ad 3d
       0.01454361 0.07207949 0.11365252 0.08476602
0002f0 d7 c8 ee 3c 0a a7 f8 3d 6c ae 8e 3c 9e 46 d7 3d
       0.029148502 0.12141235 0.017417155 0.10511516
000300 9b 4a 2b bd 15 b7 b3 bd 86 5c bc bd bd c7 c4 bc
       -0.041819196 -0.087751545 -0.09197335 -0.024021024
000310 0d c9 64 bb cd 2d 3a 3e c8 69 77 3d 17 cb 64 3d
       -0.0034909875 0.18181534 0.060403615 0.055857744
000320 bd 00 c0 bb 61 31 44 bb b2 eb 69 bc 2d 88 f6 bd
       -0.005859463 -0.0029936659 -0.014277386 -0.12037692
000330 1d 56 c3 3d 6d 60 ec bc 76 e6 bc bd 1b 59 8b bd
       0.09537909 -0.028854573 -0.092236444 -0.06804105
000340 57 54 ee 3d ee b3 8e 3b ab 73 22 3d d2 79 f1 3d
       0.1163718 0.0043549454 0.03966109 0.117908135
000350 f3 12 1d bd a7 6d e0 bd de d7 c7 bd c4 84 1e 3e
       -0.03834815 -0.109584145 -0.0975797 0.15480334
000360 b7 78 ae bd 47 73 bd 3d 63 ed 9a bd ed ce 12 3e
       -0.08519118 0.09250503 -0.07564809 0.14336748
000370 92 4e 89 3d ae 89 b4 3c c5 29 9d 3d 9a 04 bf bd
       0.06704439 0.022038307 0.076739825 -0.093270496
000380 9d 97 2d 3d 47 5e d3 bd ad 0a 91 3d 57 fe 89 bd
       0.042380918 -0.10320716 0.07082114 -0.067379646
000390 7a 9a 26 3d 92 1b 16 3e 2f 0c d0 3b 02 88 98 bd
       0.040674664 0.14658955 0.0063491086 -0.074478164
0003a0 a0 ec 63 bd 29 19 f9 bc 29 2e 8a 3d 17 cd d2 3d
       -0.055645585 -0.030407505 0.067470856 0.10293024
0003b0 e5 82 dc 3d 55 66 7d bc 9c d0 7a bd 40 4d 04 3e
       0.10767154 -0.015466292 -0.0612341 0.12920094
0003c0 87 9b 69 bd 54 b7 11 bd 8e 0b 02 3d c2 c0 9d bc
       -0.057033088 -0.035575226 0.0317493 -0.019256953
0003d0 e5 5d 10 3e 18 c2 97 3b af 9b 5f bd 65 03 2e 3e
       0.14098318 0.004631292 -0.05459183 0.16993482
0003e0 f9 cc 85 3d 4a b5 09 3d 3f 35 c0 bd a5 6c e6 bc
       0.06533236 0.033620156 -0.09385156 -0.028127978
0003f0 63 bb 01 bd ad 51 2d bd 80 23 48 3d 1b ff d5 bd
       -0.031672847 -0.04231422 0.04886198 -0.10449048
