resources/trained_policies/cartpole_v0/checkpoint_000010/learner/module_state/default_policy/module_state_dir/module_state.pt (torch, 544898 bytes, 11 tensors)

encoder.actor_encoder.net.mlp.0.weight f4 [256, 4]
0	0x3e8ea5b6	0.27860802
1	0x3eea22e3	0.4572974
2	0xbee3ba1e	-0.44477934
3	0xbdb2c6cc	-0.08729324
4	0xbebe0ca0	-0.37119007
5	0x3ea57779	0.32317713
6	0x3da6854d	0.08130894
7	0x3edff9c9	0.43745258
8	0x3e99efae	0.30065674
9	0xbe060367	-0.13087235
10	0x3dd317d1	0.10307277
11	0xbc3adc75	-0.0114051
12	0xbed6fdad	-0.41990414
13	0x3d84b2fd	0.06479452
14	0xbcabf7a1	-0.020992102
15	0xbe6ccaa8	-0.23124182
16	0xbe8d0d98	-0.27549434
17	0xbe70fdeb	-0.23534362
18	0xbf02c476	-0.51081026
19	0xbed1c1fe	-0.40968317
20	0x3be0bcf0	0.0068584606
21	0x3ef4e4bd	0.47830763
22	0x3effd78d	0.4996914
23	0xbd115340	-0.035479784
24	0xbe36e22d	-0.17859717
25	0x3ee9bcd3	0.45651874
26	0x3d795fa3	0.060882222
27	0xbe2badbf	-0.16765498
28	0x3eb1e299	0.34743193
29	0x3cd23e11	0.025664361
30	0x3e3bb650	0.18331265
31	0x3e3549ca	0.1770393
32	0xbe846a10	-0.2586217
33	0x3e9c436d	0.30520192
34	0x3ea84bf4	0.32870448
35	0xbf0b01f4	-0.54299855
36	0xbe2387f0	-0.15969825
37	0xbe59972c	-0.21249074
38	0x3c260817	0.010133765
39	0x3ef66ddb	0.48130688
40	0x3cbe9ac5	0.02326716
41	0xbef2f21e	-0.47450346
42	0x3ee6f88a	0.45111495
43	0xbda45bb6	-0.08025305
44	0xbe869db0	-0.2629218
45	0x3e83e37e	0.257595
46	0x3ed9aada	0.42513162
47	0xbe39955e	-0.18123385
48	0xbe859f07	-0.2609789
49	0xbd012141	-0.031525854
50	0xbf117d88	-0.5683217
51	0xbe904eb0	-0.28185034
52	0x3e425242	0.18976691
53	0x3ea8f614	0.33000243
54	0x3e704d32	0.23466948
55	0x3eb83931	0.35981134
56	0x3df179db	0.1179082
57	0xbecc8248	-0.39943147
58	0xbf08dd9b	-0.53463143
59	0xbe70a940	-0.23502064
60	0xbecd606f	-0.40112635
61	0x3eb93d08	0.36179376
62	0x3ed62a1e	0.41829008
63	0xbe911c49	-0.28341892
64	0xbe154ad2	-0.14579323
65	0x3de0da12	0.109790936
66	0x3e437315	0.19086869
67	0x3dea2b5d	0.11434052
68	0x3f078c85	0.5294879
69	0x3ef2a075	0.47388044
70	0xbcaeabab	-0.021322092
71	0xbdb8ae5b	-0.09017631
72	0x3db66b6d	0.089072086
73	0xbd807514	-0.06272331
74	0x3ea95f19	0.33080366
75	0xbd92cbbb	-0.07167765
76	0xbdef0a70	-0.11671913
77	0xbe82fb3c	-0.25582302
78	0xbdf7393c	-0.120714635
79	0x3e61b828	0.22042906
80	0x3e7f0853	0.24905519
81	0xbe8423b1	-0.2580848
82	0x3eb02cfc	0.3440932
83	0x3edac0e2	0.42725283
84	0xbe690cf2	-0.22758844
85	0xbec191d8	-0.37806582
86	0xbe9f6b2f	-0.31136462
87	0x3e2bcb2f	0.16776727
88	0xbe94f740	-0.29094887
89	0x3dd5fb65	0.1044834
90	0x3e7142da	0.23560658
91	0xbec76c66	-0.3894989
92	0xbd5dbc66	-0.05413475
93	0xbe8c70bf	-0.27429768
94	0xbe8256d6	-0.25456876
95	0x3e1b1a00	0.15146637
96	0xbe932f89	-0.28747204
97	0x3ed2b4f1	0.41153672
98	0x3f115c20	0.56781197
99	0x3ec21364	0.3790542
100	0x3e89012b	0.26758704
101	0x3dadabe6	0.08480053
102	0x3ea564fe	0.32303613
103	0xbef0d940	-0.4704075
104	0x3e0b95c2	0.13631347
105	0xbd9bff7a	-0.07617088
106	0xbeeea1c6	-0.46607798
107	0xbf0a439a	-0.540094
108	0x3d22d375	0.039752442
109	0xbd852a58	-0.06502217
110	0xbe90b710	-0.28264666
111	0xbe8758a2	-0.2643481
112	0xbd9cafe3	-0.07650735
113	0xbcc1789d	-0.023617083
114	0x3ef6242d	0.48074475
115	0x3ebdc4df	0.37064263
116	0xbc51653e	-0.012780486
117	0xbe703cfe	-0.23460767
118	0xbecc73be	-0.39932054
119	0x3ebf59eb	0.3737329
120	0xbeda0c54	-0.4258753
121	0xbec1b2d0	-0.37831736
122	0x3ea1fef5	0.3163983
123	0x3e72dd96	0.23717341
124	0xbc4df0e9	-0.0125696445
125	0x3f016c35	0.50555736
126	0xbeaee055	-0.34155527
127	0xbcd5d56c	-0.026102744
128	0xbece5576	-0.40299577
129	0x3e348418	0.17628515
130	0x3ebe7255	0.37196603
131	0x3d3352bb	0.04378007
132	0x3efcf4af	0.4940543
133	0x3ebb2a9e	0.36555952
134	0x3e120b2d	0.14262076
135	0xbec81b36	-0.3908326
136	0x3e6f3b1f	0.23362397
137	0xbe3def22	-0.18548253
138	0x3e8f02a9	0.27931717
139	0xbee22bee	-0.4417414
140	0x3e1c2f29	0.15252365
141	0x3ea6e4b3	0.3259636
142	0xbee39658	-0.4445064
143	0xbef13a9b	-0.47115025
144	0x3ec4285b	0.3831204
145	0xbcac6013	-0.021041906
146	0xbeb844df	-0.35990044
147	0x3e24f574	0.16109258
148	0xbf02b56b	-0.5105807
149	0xbe28a58f	-0.16469406
150	0xbe537efe	-0.20653912
151	0xbd179ea4	-0.037016526
152	0xbd717fd2	-0.05895979
153	0xbc53ee8a	-0.01293529
154	0x3e7ffaa2	0.24997953
155	0xbed12208	-0.40846276
156	0xbec7d62a	-0.39030582
157	0xbefcbfb4	-0.49365008
158	0xbe938c34	-0.28817904
159	0xbef11e71	-0.47093537
160	0xbd8a8503	-0.06763651
161	0xbec3338c	-0.38125265
162	0xbecadb1f	-0.396203
163	0xbe469fb1	-0.19396855
164	0x3eb12de1	0.34605315
165	0x3e04f4ba	0.12983981
166	0xbe6f407a	-0.2336444
167	0x3cb27b98	0.02178745
168	0xbd633823	-0.055473458
169	0xbdc6587e	-0.09684847
170	0x3f0eebdf	0.5582866
171	0x3da312c9	0.07962567
172	0x3eb5dd6e	0.355205
173	0x3d65efd1	0.05613691
174	0xbf01f840	-0.50769424
175	0xbf034427	-0.5127587
176	0xbed8dbdb	-0.42355236
177	0xbe9427b7	-0.2893655
178	0xbef9ab7a	-0.4876364
179	0xbd985bc4	-0.07439378
180	0x3edf37e5	0.43597332
181	0x3e3d73a5	0.18501146
182	0xbe4b5abb	-0.1985883
183	0x3e4c0d12	0.19926861
184	0x3edb8c07	0.4288027
185	0x3ef063ca	0.46951133
186	0x3e634fee	0.2219846
187	0x3ef2c885	0.4741861
188	0x3eb94a78	0.36189628
189	0xbec7babc	-0.39009655
190	0x3f0bd234	0.5461762
191	0x3e9c69ff	0.3054962
192	0xbca02e19	-0.019553231
193	0x3e0867d0	0.13320851
194	0xbf1c71f2	-0.61111367
195	0xbf05c6ca	-0.52256453
196	0x3ee2ea7f	0.4431953
197	0xbe3ebd08	-0.18626797
198	0x3e635f9b	0.2220444
199	0xbee1be4f	-0.44090506
200	0xbee4dfc8	-0.44701982
201	0x3ea05c31	0.31320336
202	0x3e726b08	0.23673642
203	0xbf0e36ba	-0.55552256
204	0x3ef19d88	0.471905
205	0x3ea0df89	0.31420544
206	0x3ed40ac8	0.41414475
207	0x3ee524a6	0.44754523
208	0xbde2ea5b	-0.11079856
209	0x3e06802f	0.13134836
210	0x3d6191cf	0.055070695
211	0xbe02ec3b	-0.12785427
212	0x3e947f17	0.29003212
213	0xbee8b72a	-0.45452243
214	0xbef2e7a8	-0.47442365
215	0xbdac6bc4	-0.08418992
216	0x3cc9688f	0.02458599
217	0x3e1260cd	0.14294739
218	0xbedbe16b	-0.42945418
219	0x3e0b954a	0.13631168
220	0x3e3c87ea	0.18411222
221	0xbe46f1ee	-0.19428226
222	0xbeba1a64	-0.3634826
223	0xbee1aa37	-0.44075176
224	0xbee5718e	-0.44813198
225	0xbd9e925c	-0.077427596
226	0x3f05ed95	0.52315646
227	0xbec474f9	-0.38370493
228	0x3e832d33	0.25620422
229	0x3ed6716e	0.41883415
230	0xbeca6117	-0.395272
231	0x3c529c46	0.012854641
232	0xbeae1c34	-0.34005892
233	0x3e86a1ca	0.2629531
234	0x3e555d94	0.20836478
235	0x3ee60e21	0.44932655
236	0x3e471510	0.19441628
237	0xbcd9f891	-0.026607784
238	0x3eb81e5b	0.3596066
239	0x3f0904e7	0.53523105
240	0xbedf4a2d	-0.4361128
241	0xbd93f394	-0.07224193
242	0xbefda7d2	-0.495421
243	0xbda7be5c	-0.08190605
244	0x3edbb811	0.4291387
245	0xbcbecdc7	-0.023291482
246	0x3e60e172	0.21961
247	0x3eb46767	0.3523514
248	0x3e77aeaf	0.2418773
249	0x3ddf6b52	0.109091416
250	0x3f00a8a3	0.5025732
251	0xbe93547e	-0.287754
252	0xbdb9a30c	-0.09064302
253	0x3ea825b6	0.3284127
254	0xbe28067f	-0.16408728
255	0xbeebd7fd	-0.46063223

encoder.actor_encoder.net.mlp.0.bias f4 [256]
0	0x3ea992f5	0.33119932
1	0x3e610d1c	0.21977657
2	0x3eb634fa	0.35587293
3	0x3d52a4aa	0.051426567
4	0x3e816708	0.2527392
5	0x3e12c40c	0.14332598
6	0xbe59ac78	-0.21257198
7	0xbe7dd832	-0.24789503
8	0x3e657a08	0.22409832
9	0xbddbe7ee	-0.107375965
10	0xbd52ee3f	-0.05149674
11	0xbedcf944	-0.43158925
12	0xbec6314f	-0.38709494
13	0x3e2616c6	0.16219625
14	0x3ccb3266	0.024804305
15	0x3effd38c	0.49966085
16	0xbe19d174	-0.15021306
17	0xbe9faaa9	-0.3118489
18	0xbe5e9353	-0.21735887
19	0xbec507eb	-0.38482603
20	0xbee6bab0	-0.45064306
21	0x3e328527	0.17433606
22	0x3ebbe3a4	0.36697114
23	0xbef1db36	-0.47237557
24	0xbe074c12	-0.13212612
25	0x3ea7a4e5	0.32742992
26	0x3ebd6f11	0.369988
27	0xbeb11587	-0.34586737
28	0x3e07455c	0.13210052
29	0x3ed244f4	0.41068232
30	0xbef6b0f1	-0.4818187
31	0x3ec31234	0.38099825
32	0x3e3e5a7d	0.18589206
33	0xbec44d01	-0.3834
34	0xbcb86224	-0.022507735
35	0xbe80f67a	-0.25188047
36	0x3ec40642	0.38286024
37	0x3eb50ae7	0.3535988
38	0x3eeb43dc	0.4595021
39	0xbea64922	-0.3247767
40	0x3ea5a85b	0.32355008
41	0x3ec4b7b8	0.38421416
42	0x3e28b75e	0.16476199
43	0xbe38eb7b	-0.18058579
44	0xbee3143c	-0.44351375
45	0x3e0aa683	0.13540082
46	0x3e0d39c7	0.13791572
47	0xbe2e1710	-0.17000985
48	0xbe5ff8ec	-0.218723
49	0xbe43dea7	-0.19127904
50	0x3e9416e6	0.2892372
51	0x3e720caa	0.23637643
52	0x3e9cf7da	0.30657846
53	0xbd3d4d1d	-0.04621612
54	0xbe5059d0	-0.20346761
55	0x3ce6721c	0.028130583
56	0x3e5133e6	0.20429954
57	0x3ec208b5	0.37897268
58	0xbee76b3b	-0.45198998
59	0x3da12260	0.07867885
60	0xbd9cb81e	-0.07652305
61	0xbdb04dba	-0.08608575
62	0x3d0cda86	0.034388088
63	0x3b5dc08f	0.0033836698
64	0x3ed90dd0	0.4239335
65	0xbe5a38d5	-0.21310742
66	0x3e9a5ac7	0.30147383
67	0xbe8fe472	-0.28103977
68	0x3eebef4b	0.46081004
69	0x3eec512b	0.46155676
70	0x3d17d9ff	0.03707313
71	0x3ec13419	0.3773506
72	0xbe4aa607	-0.19789897
73	0xbd9eb1f5	-0.07748786
74	0xbd0d5bb5	-0.034511287
75	0xbe955bdb	-0.29171643
76	0x3ec029c5	0.37531868
77	0x3ee90452	0.4551111
78	0xbe09d78d	-0.13461132
79	0x3ef15350	0.47133875
80	0xbcbe9456	-0.023264091
81	0xbe1eb4ec	-0.15498704
82	0xbef27584	-0.47355282
83	0xbe85e01d	-0.26147547
84	0xbeb194a6	-0.34683722
85	0xbe9190bc	-0.28430736
86	0x3d1ee207	0.038789775
87	0x3e95eba6	0.29281348
88	0xbd78697f	-0.060647484
89	0x3ec5c773	0.3862873
90	0xbe5259ca	-0.20542064
91	0x3df92c17	0.121666126
92	0xbd482b85	-0.04886963
93	0x3e707122	0.23480657
94	0x3e6057ea	0.21908537
95	0xbeef2a57	-0.4671199
96	0xbec48f57	-0.3839061
97	0xbe2aed3b	-0.16692059
98	0xbdb4b652	-0.08823837
99	0x3dcfe7fc	0.101516694
100	0x3d79f48a	0.061024226
101	0xbc8d85f3	-0.017275786
102	0xbea975a8	-0.33097577
103	0xbdc366e9	-0.09541113
104	0x3d97847a	0.07398315
105	0x3ea6d613	0.325852
106	0x3eda0923	0.42585096
107	0x3e8287ff	0.25494382
108	0xbedc6607	-0.4304659
109	0x3ed78595	0.42094103
110	0xbddc6259	-0.10760946
111	0x3eefcce9	0.46836022
112	0xbdc39d9f	-0.09551548
113	0x3d38911f	0.045060273
114	0xbe74722f	-0.23871683
115	0x3e245505	0.16048057
116	0xbed10d85	-0.40830627
117	0xbef54393	-0.47903118
118	0xbe8d8bbf	-0.2764568
119	0xbd424576	-0.047429524
120	0x3e31a33d	0.17347427
121	0xbee0f9e5	-0.43940654
122	0x3dfc25d9	0.12311906
123	0x3e075c8a	0.13218895
124	0xbec7df3e	-0.39037508
125	0x3e96bf89	0.29443005
126	0x3ec2f1cc	0.380751
127	0xbe0ae8de	-0.13565394
128	0xbe3f803c	-0.18701261
129	0x3ef5d70e	0.48015636
130	0xbe13e4af	-0.14442705
131	0x3ecf587b	0.40497193
132	0x3eec0d53	0.46103916
133	0xbedaf050	-0.4276147
134	0xbed5e405	-0.41775528
135	0x3d5c14ff	0.05373096
136	0xbef5c4d1	-0.48001722
137	0x3eade315	0.33962312
138	0x3d9da777	0.07697957
139	0x3ee3a5f3	0.44462547
140	0xbdf3da4d	-0.11906872
141	0x3ec1abf9	0.37826517
142	0x3dfee529	0.124460526
143	0x3eb61a22	0.35566813
144	0x3eb88dea	0.36045772
145	0x3eb70182	0.35743338
146	0x3e64019f	0.22266243
147	0xbe60b75e	-0.21944949
148	0xbdc8db20	-0.0980742
149	0x3a1e0e09	0.0006029313
150	0x3d10e3f6	0.03537365
151	0xbeab0290	-0.33400393
152	0xbdc1e7d7	-0.09468048
153	0xbe80c9dc	-0.25154006
154	0x3e08946b	0.13337867
155	0xbca06037	-0.019577129
156	0x3ebb9a17	0.36641
157	0x3ec756b7	0.38933346
158	0x3e5aad0c	0.21355075
159	0x3dcb43c9	0.09925038
160	0xbe8b4298	-0.27199244
161	0x3e466ef8	0.19378269
162	0xbdae0c18	-0.084984004
163	0xbe028110	-0.12744546
164	0xbe556be8	-0.20841944
165	0x3e20bff4	0.15698224
166	0x3e822213	0.25416622
167	0xbecebd27	-0.40378687
168	0xbef5be9b	-0.47996983
169	0xbd5583d1	-0.052127663
170	0x3deb56fb	0.114911996
171	0x3e17a7dd	0.14810129
172	0xbefca13b	-0.4934176
173	0xbef14a11	-0.4712682
174	0x3e0ebea1	0.13939907
175	0xbec5252f	-0.3850493
176	0xbe9a01d0	-0.30079508
177	0x3e67c5bf	0.22634028
178	0xbe92a738	-0.28643203
179	0x3dbf6d75	0.09347049
180	0x3ea7af33	0.32750854
181	0xbe31b7a1	-0.17355205
182	0xbeac3041	-0.33630565
183	0xbed60180	-0.4179802
184	0x3db37597	0.08762663
185	0x3eeb835b	0.45998654
186	0xbdf65f7c	-0.12029931
187	0x3ddfc8fc	0.109270066
188	0x3ef853f5	0.48501554
189	0xbeb8c4ca	-0.36087638
190	0xbedbd961	-0.42939284
191	0xbd93061f	-0.07178902
192	0x3d80853e	0.06275414
193	0x3e5aa766	0.2135292
194	0xbee5babf	-0.44869038
195	0xbeca8b34	-0.3955933
196	0x3e9db140	0.30799294
197	0x3e57e5ae	0.2108371
198	0xbee420d9	-0.4455631
199	0x3ea73e4d	0.3266472
200	0xbe1a89ea	-0.15091673
201	0xbcecfffd	-0.028930658
202	0x3e370f07	0.17876826
203	0xbe2c03c1	-0.16798307
204	0xbef1b15f	-0.47205636
205	0xbe03cb62	-0.12870553
206	0xbeb08a83	-0.34480676
207	0xbe46ec59	-0.19426097
208	0x3e625f37	0.22106634
209	0xbe08f51a	-0.13374749
210	0xbe9d8189	-0.3076289
211	0xbe9d5186	-0.3072626
212	0xbd6c1c07	-0.057643916
213	0xbee2e01e	-0.44311613
214	0xbed360c6	-0.4128477
215	0x3cc91698	0.024546906
216	0x3e143993	0.14475088
217	0xbea4fb5e	-0.32223028
218	0xbd95d37c	-0.07315728
219	0xbed8d2a1	-0.42348197
220	0xbe0c2612	-0.13686398
221	0xbe824179	-0.25440577
222	0xbef03715	-0.46917024
223	0x3e87639f	0.26443192
224	0x3eeae390	0.4587674
225	0x3e9e933d	0.3097171
226	0x3e871927	0.26386377
227	0x3c52d62f	0.012868448
228	0xbebb7e46	-0.36619776
229	0xbe9b8bf2	-0.30380207
230	0x3e99c056	0.30029553
231	0xbe5d32dc	-0.21601433
232	0x3d6fe051	0.058563534
233	0x3ea4671c	0.32109916
234	0xbec74e03	-0.38926706
235	0xbc03a9cb	-0.008036087
236	0x3d2355a1	0.039876584
237	0xbea7afc9	-0.327513
238	0xbeb548ff	-0.35407254
239	0x3d98f022	0.07467677
240	0x3eeaf8a0	0.4589281
241	0x3edb2386	0.4280054
242	0x3e463405	0.19355781
243	0x3e338618	0.17531621
244	0xbdba31ac	-0.090915054
245	0x3eb08d12	0.34482628
246	0x3cc87734	0.024470903
247	0x3dc952b3	0.09830227
248	0xbe8a21ff	-0.26979062
249	0xbecf4a96	-0.40486592
250	0xbeec2522	-0.4612208
251	0xbee35a70	-0.44404936
252	0x3ecde2de	0.40212148
253	0x3c93a575	0.018023232
254	0xbd9be4a7	-0.07611971
255	0xbd00bee6	-0.031432055

encoder.actor_encoder.net.mlp.2.weight f4 [256, 256]
0	0xbd09fc69	-0.033687983
1	0x3d77d4e3	0.06050576
2	0xbd356332	-0.044284053
3	0x3d76e261	0.060274485
4	0xbce571e9	-0.028008418
5	0x3bad9255	0.005296985
6	0x3d6ddfc7	0.05807474
7	0xbc35f77b	-0.011106367
8	0xbd5801b3	-0.052735996
9	0xbd055f6c	-0.032561705
10	0xbd36405e	-0.04449498
11	0x3784452a	1.5767833e-05
12	0xbcde23d2	-0.02711669
13	0x3c1186f8	0.008882277
14	0x3c878af7	0.016545756
15	0xbc19b58a	-0.009381661
16	0x3d56dd17	0.05245694
17	0xbcb057e7	-0.02152629
18	0xbadc24de	-0.0016795655
19	0xbc833616	-0.016017001
20	0xbd61f63e	-0.055166475
21	0xbd0a5c1d	-0.033779252
22	0xbcb2664c	-0.021777295
23	0x3d54cee5	0.051955123
24	0xbcf01dff	-0.029311178
25	0x3d40fc4a	0.0471156
26	0xbd42e964	-0.04758586
27	0xbbd56823	-0.006512658
28	0x3c991531	0.018686863
29	0x3ce72191	0.028214248
30	0xbcc0b349	-0.02352299
31	0x3c2a134b	0.010380576
32	0x3d541320	0.05177605
33	0x3d247885	0.040154
34	0xbc62cdc8	-0.013843007
35	0x3d24edcc	0.040265843
36	0x3baa10fa	0.005190012
37	0xbc17183f	-0.009222089
38	0xbcc22591	-0.023699554
39	0x3c6846b4	0.014177013
40	0x3c7032d2	0.014660554
41	0xbd2886f0	-0.04114431
42	0x3c1c2cb6	0.009532144
43	0x3c92eaff	0.01793432
44	0xbb1059a3	-0.0022026084
45	0xbce5c1eb	-0.028046569
46	0x3d648dd1	0.05579931
47	0x3c67fe96	0.014159819
48	0xbd02cfe1	-0.03193653
49	0xbd054469	-0.032535944
50	0x3d422baf	0.04740494
51	0x3d2c4371	0.042056505
52	0x3ccb9d62	0.02485532
53	0x3b818860	0.0039530247
54	0xbd50cd42	-0.050977
55	0xbd3a8699	-0.04553852
56	0x3d5cf29e	0.053942315
57	0x3c825f1f	0.015914498
58	0xbcb5f981	-0.0222137
59	0x3d3dbb30	0.046321094
60	0xbd1cad25	-0.03825106
61	0xbbedb087	-0.0072537097
62	0x3d4c2695	0.049841482
63	0xbcccb7f3	-0.024990058
64	0x3c30f8a7	0.010801471
65	0x3d1b2728	0.03787914
66	0x3cf248d7	0.029575748
67	0xbd0b52de	-0.034014575
68	0x3d1630c0	0.036667585
69	0x3c04fe33	0.008117246
70	0x3d4badc9	0.04972628
71	0xbd58ea03	-0.052957546
72	0x3cf02788	0.029315725
73	0x3d7634e6	0.06010904
74	0xbd8300df	-0.063966505
75	0xbc16bbb0	-0.009200022
76	0xbd7c83b4	-0.06164904
77	0xba3802e4	-0.00070194737
78	0x3ce9cb51	0.028539332
79	0x3cf926f8	0.03041409
80	0xbc56037b	-0.013062353
81	0xbbeb1d88	-0.0071751513
82	0x3cba4f06	0.02274276
83	0xbd6236c4	-0.05522801
84	0xbc9916b9	-0.018687593
85	0x3c841ddc	0.01612752
86	0xbd2f33e4	-0.042774096
87	0xbd281bbc	-0.041042075
88	0x3d3ed496	0.046589456
89	0xba9ea519	-0.0012103646
90	0xbc8e4a6c	-0.017369471
91	0xbd13b9d2	-0.036065884
92	0x3c8456cd	0.016154671
93	0x3d788977	0.06067797
94	0x3d03ad78	0.032147855
95	0xbce2f794	-0.027705945
96	0xbd718f14	-0.05897434
97	0x3cef2adb	0.02919524
98	0xbd1fb0f3	-0.03898711
99	0x3c93093b	0.017948737
100	0x3d211057	0.039322224
101	0x3cf43c45	0.029813895
102	0x3c1a5796	0.009420296
103	0x3d8a565a	0.067547515
104	0xbd320c3b	-0.043468695
105	0xba7d3f8f	-0.0009660655
106	0x3c9ed127	0.019386841
107	0xbc23a037	-0.009986929
108	0xbbe21aa2	-0.0069001475
109	0xbbed74d0	-0.007246591
110	0x3d1a5316	0.037676893
111	0x3d5609ea	0.05225555
112	0x3ba4bd67	0.0050274613
113	0x3d298816	0.041389547
114	0xbd1926e7	-0.037390616
115	0xbc5fa9cb	-0.013651322
116	0xbd03d932	-0.032189555
117	0x3d0c5b3f	0.034266707
118	0x3d654f89	0.055984054
119	0x3c90ec45	0.017690787
120	0x3ccb5f14	0.02482561
121	0x3d7b14bf	0.061299082
122	0xbd7ef9cc	-0.062249944
123	0x3d23cd6e	0.039990835
124	0x3d263d53	0.040585827
125	0xbcf4da3b	-0.029889217
126	0xbcb417bb	-0.021983972
127	0x3babe485	0.0052457475
128	0xbd57dfd0	-0.05270368
129	0xbd520a3b	-0.051279288
130	0x3b879720	0.0041378886
131	0x3d7dc513	0.061955523
132	0xbb8250a8	-0.0039769
133	0xbbb34076	-0.005470331
134	0x3d429211	0.04750258
135	0x3c05fca3	0.008177909
136	0xba509ebe	-0.0007958225
137	0x3d252f34	0.04032822
138	0x3ca04857	0.019565744
139	0xbcec9c31	-0.028883072
140	0x3cbafad9	0.022824692
141	0x3d3aff15	0.04565342
142	0x3d99f786	0.075179145
143	0x3d673cee	0.05645459
144	0xbd892a83	-0.066975616
145	0x3c9cb190	0.019127637
146	0xbb08d4d6	-0.0020878813
147	0xbd425384	-0.047442928
148	0xbc2b890f	-0.010469689
149	0x3d24d5b5	0.04024287
150	0x3d33ecdd	0.043927062
151	0x3cde201d	0.027114922
152	0xbd662da4	-0.05619587
153	0xbd144da0	-0.03620684
154	0x3d292553	0.04129536
155	0xbd4babfb	-0.04972456
156	0x3d0a95da	0.033834316
157	0xbc4b4ce2	-0.012408467
158	0x3caa2939	0.02077161
159	0x3d48ca4c	0.04902105
160	0x3d3ffee3	0.04687394
161	0x3bf4cbe1	0.0074705933
162	0xbd0a8bc6	-0.033824705
163	0xbcadac3e	-0.021200296
164	0x3c89a37b	0.016801586
165	0x3d63903b	0.05555747
166	0xbcccbadd	-0.024991447
167	0xbd51ae9b	-0.051191907
168	0xbd076e62	-0.033064254
169	0xbd377e63	-0.044798266
170	0xbcb8472b	-0.022494873
171	0xbcd9c158	-0.026581451
172	0x3d555f50	0.05209285
173	0x3d6e1804	0.05812837
174	0xbc42d1e4	-0.011890862
175	0xbd3c0829	-0.04590622
176	0xbce74730	-0.028232187
177	0x3d400d24	0.046887532
178	0x3d2b0192	0.041749544
179	0x3cebf205	0.028801927
180	0xbcbef9ae	-0.023312416
181	0xbc9af285	-0.01891447
182	0xbcdcae18	-0.026938483
183	0xbcbef57a	-0.023310412
184	0x3d35848c	0.04431586
185	0x3c89938a	0.016793985
186	0xbd776377	-0.06039759
187	0x3c6d3a60	0.01447925
188	0xbcc0dfbb	-0.023544183
189	0xbc8dc3fd	-0.017305369
190	0xbd32654a	-0.043553628
191	0xbb8878f1	-0.004164808
192	0x3c9dbc34	0.019254781
193	0x3b73713e	0.0037146355
194	0xbd87ee07	-0.06637197
195	0xbd828d99	-0.06374664
196	0x3cd3b9f6	0.025845509
197	0x3b7a7e32	0.003822219
198	0x3c1fe14b	0.009758304
199	0x3bb83d12	0.0056225145
200	0xbc695ec7	-0.014243788
201	0x3d038b10	0.032115042
202	0xbd0dc116	-0.03460797
203	0x3d29d173	0.041459512
204	0xbce16bf4	-0.027517296
205	0x3bea59c7	0.0071518156
206	0xbccda11f	-0.025101243
207	0xbd6b09a7	-0.057382252
208	0xbd06f88f	-0.032951888
209	0x3d21c4b7	0.039494243
210	0x3d09c30d	0.03363328
211	0x3b5921dd	0.0033131756
212	0x3c7a163c	0.01526409
213	0x3cbb4ec1	0.022864701
214	0x3c31b3d7	0.0108461
215	0x3c1b05dc	0.009461846
216	0xbd28a4f4	-0.041172937
217	0xbba2b131	-0.0049649705
218	0x3d2417da	0.04006181
219	0xbd2d51a3	-0.042314183
220	0x3d28699a	0.041116334
221	0xbcfb0e02	-0.030646328
222	0x3c85f696	0.016352933
223	0xbb14046c	-0.0022585643
224	0xbd145350	-0.036212265
225	0xbd15f8cc	-0.036614224
226	0xbc8531b5	-0.016259054
227	0x3d2ec985	0.042672653
228	0x3d74cbd0	0.059764683
229	0xbcc7e2f8	-0.02440022
230	0x3d66bdf7	0.05633351
231	0x3d11ea98	0.035624117
232	0x3c1a3d14	0.009413976
233	0xbcf0b262	-0.029381935
234	0xbcce2560	-0.025164306
235	0xbc595552	-0.013264971
236	0xbd986936	-0.074419424
237	0x3d403236	0.046922885
238	0xbd0595a5	-0.032613415
239	0x3d6f9535	0.058491904
240	0xbd3b3295	-0.045702536
241	0xbc9e334e	-0.019311573
242	0xbbb568d9	-0.0055361805
243	0x3d1859b2	0.037194915
244	0x3ce0b831	0.02743158
245	0x3bec7cbe	0.007217019
246	0x3d24dd9d	0.04025041
247	0x3cb80766	0.022464465
248	0xbd51ff50	-0.051268876
249	0x3b1fed76	0.0024403012
250	0x3cbfeb56	0.023427647
251	0xbd3f5366	-0.046710394
252	0xbc62d5cf	-0.013844921
253	0xbb3dcbb5	-0.002896053
254	0xbc503d20	-0.012709886
255	0x3d18ad49	0.037274633

encoder.actor_encoder.net.mlp.2.bias f4 [256]
0	0xbc0bd6b8	-0.00853508
1	0xba9e87c3	-0.0012094904
2	0xbd1f01ab	-0.03881995
3	0x3d55359b	0.052053075
4	0x3c811519	0.01575713
5	0xbba88cfe	-0.0051437607
6	0xbd7cd996	-0.061730944
7	0xbba90c18	-0.0051589124
8	0xbd7a7c7f	-0.061153885
9	0xbc83dce6	-0.016096544
10	0x3d837384	0.06418517
11	0xbc8dd91d	-0.017315442
12	0xbd0d8863	-0.034553897
13	0xbd629ba2	-0.055324204
14	0x3d51f554	0.051259354
15	0x3d279d7d	0.040921677
16	0xbd0ba4e6	-0.034092806
17	0x3cf2db7c	0.029645674
18	0x3c9f92c6	0.019479167
19	0xbcd3e508	-0.025866047
20	0xbd68cbac	-0.05683486
21	0x3d83f1f0	0.0644263
22	0xbc5ee010	-0.013603225
23	0xbd359035	-0.04432698
24	0xbc1e7a4e	-0.009672714
25	0x3cb3aa0f	0.021931676
26	0xbcf34b9c	-0.02969914
27	0xbb02df86	-0.0019969656
28	0xbd500a83	-0.050791275
29	0xbc5ad5d0	-0.013356641
30	0x3ceb01ea	0.028687436
31	0x3d6bcbf5	0.057567555
32	0xbcb23829	-0.021755295
33	0x3d237d08	0.03991416
34	0x3d1f2305	0.038851757
35	0xbac145b3	-0.0014745503
36	0xbc4086c6	-0.0117508825
37	0x3d4b85d2	0.049688168
38	0xbd392476	-0.045200787
39	0xbc7f5edd	-0.015586582
40	0xbc9c152c	-0.019053064
41	0x3d6632ce	0.056200795
42	0xbccf7755	-0.025325457
43	0xbd076bda	-0.03306184
44	0xbc7b7460	-0.01534757
45	0xbca046c2	-0.01956499
46	0xbd105256	-0.03523477
47	0xbd828a05	-0.063739814
48	0x3cbff217	0.023430867
49	0xbd731b4b	-0.0593522
50	0xbc4b4b12	-0.012408035
51	0x3c79c529	0.015244761
52	0xbc688e7b	-0.014194126
53	0x3b39fb27	0.0028378458
54	0xbd2ab6fe	-0.04167842
55	0xbd25957e	-0.04042577
56	0xbcb28e1a	-0.021796275
57	0xbb8058e6	-0.0039168475
58	0x3d49ef7b	0.049300652
59	0xbc1f142c	-0.009709399
60	0xbd1d16a0	-0.038351655
61	0xbb9db686	-0.0048130183
62	0x3c77d808	0.015127189
63	0x3d43712d	0.047715355
64	0x3d5aa50b	0.053380053
65	0x3b723f71	0.0036964084
66	0x3cd4bd3d	0.025969142
67	0x3c1b88d4	0.009493072
68	0x3d2f7215	0.042833406
69	0x3d43f828	0.047844082
70	0x3be3021e	0.0069277426
71	0xbc85e63d	-0.016345138
72	0xbd2cd014	-0.042190626
73	0xbba27855	-0.0049581924
74	0x3d08ac52	0.033367462
75	0xbd5a50fd	-0.053299893
76	0xbd3f9f4c	-0.046782777
77	0x3b9829c5	0.004643651
78	0x3d58dd41	0.05294538
79	0x3ce5013f	0.027954696
80	0x3cbeed95	0.023306647
81	0xbcc6cec3	-0.024268514
82	0x3d192724	0.037390843
83	0xbce9ceef	-0.028541056
84	0x3d6bac53	0.057537388
85	0x3c8f8b2a	0.017522413
86	0x3d74d33a	0.059771754
87	0x3ccbbadb	0.024869373
88	0xbc93a887	-0.018024696
89	0xbbc6f8b0	-0.0060721263
90	0x3cdd840d	0.027040506
91	0xbd0dbb45	-0.034602422
92	0xbd5c6b00	-0.05381298
93	0xbc9b970c	-0.018992923
94	0x3d22e969	0.03977338
95	0xbc625de8	-0.013816334
96	0x3bc3080d	0.0059518875
97	0x3d556fed	0.052108694
98	0xbd30b514	-0.04314144
99	0x3d0ba0aa	0.034088768
100	0xbd8707de	-0.065932974
101	0xbaf94a21	-0.0019019285
102	0x3d3f9a4d	0.046778012
103	0x3b8b209d	0.004245831
104	0x3d06642b	0.03281037
105	0x3ce7a3dd	0.028276378
106	0x3b4f0f3e	0.0031594778
107	0x3d27e050	0.040985405
108	0x3d6476d7	0.055777397
109	0xbd5cec9b	-0.053936582
110	0x3d648d9d	0.055799115
111	0x3c30c4b0	0.010789081
112	0x3d2879bf	0.04113173
113	0x3d716a68	0.058939368
114	0xbd4eef33	-0.050521087
115	0xbcab06a7	-0.020877196
116	0xbc202749	-0.009774991
117	0xbc81fe8a	-0.015868444
118	0xbb1aa9c6	-0.0023599728
119	0x3cf95508	0.030436054
120	0xbbb83a20	-0.0056221634
121	0xbca87a1b	-0.020566037
122	0x3c999587	0.018748058
123	0x3d21309e	0.039353006
124	0x3d632466	0.055454634
125	0x3d24dc76	0.04024931
126	0x3d768822	0.06018842
127	0xbd6e5465	-0.058185954
128	0x3c14a5f2	0.009072768
129	0xbd37243b	-0.044712286
130	0x3d5282fe	0.051394455
131	0xbb944df0	-0.0045258924
132	0x3ce7c811	0.028293641
133	0x3d6c7e0f	0.057737406
134	0xbd1de44c	-0.0385478
135	0x3bf90b90	0.0076002553
136	0xbc27e034	-0.010246325
137	0x3b886600	0.00416255
138	0xbd6e4bc1	-0.058177713
139	0x3cf2e20b	0.029648801
140	0x3c135d35	0.00899439
141	0xbd4639f0	-0.048395097
142	0xbd1e4200	-0.03863716
143	0x3d41772f	0.047232803
144	0xbd4eb4cc	-0.05046539
145	0x3d5ca0a1	0.053864125
146	0x3ce10309	0.027467268
147	0xbd6783d0	-0.05652219
148	0xbd818a7d	-0.06325243
149	0xbc286169	-0.010277131
150	0xbb0540f3	-0.0020332902
151	0x3d220500	0.03955555
152	0xbcbc9e6d	-0.023024762
153	0x3d02d5fb	0.03194235
154	0xbc198e90	-0.009372368
155	0xbc5d58a8	-0.013509907
156	0x3d3717e5	0.044700522
157	0x3cd1dfd3	0.025619423
158	0x3d0f168b	0.034933608
159	0xbba766f9	-0.005108711
160	0x3b583024	0.0032987678
161	0x39a1ed4f	0.00030885122
162	0xbcbf2672	-0.023333762
163	0x3d03c1e1	0.03216732
164	0xbd88a7ce	-0.06672631
165	0xbce96051	-0.02848831
166	0xbd0a4e3f	-0.033766028
167	0x3ce13bb2	0.027494285
168	0x3d013894	0.031548098
169	0x3d59af5b	0.053145748
170	0xbc664908	-0.014055498
171	0x3bd3db3e	0.0064653447
172	0x3cfd984c	0.03095641
173	0xbb9ac674	-0.0047233645
174	0xbd16a538	-0.03677866
175	0x3d80afc7	0.06283527
176	0x3d48e030	0.049041927
177	0x3d0bf1e5	0.034166235
178	0x3d21f35e	0.039538734
179	0xbd3f886d	-0.046760965
180	0xbca9288f	-0.020649223
181	0x3cdfa263	0.027299112
182	0xbce06539	-0.027392017
183	0x3bab6f13	0.005231747
184	0xbcdcbdb3	-0.026945924
185	0x3d285a95	0.04110201
186	0xbbf30e23	-0.0074174567
187	0xbd68e443	-0.056858312
188	0x3d7eb108	0.06218055
189	0x3cf306c0	0.029666305
190	0xbcc81f65	-0.024429033
191	0x3c65bc62	0.014021965
192	0x3ca52c66	0.020162772
193	0xbd80810d	-0.062746145
194	0x3d3ea165	0.046540637
195	0xbd2b990c	-0.041894004
196	0xbc6d1f8c	-0.014472853
197	0xbc5ec70a	-0.013597259
198	0x3c9f3e8f	0.01943901
199	0xbd7d4059	-0.061828945
200	0xbd38bc6e	-0.045101576
201	0xbd151a9a	-0.036402322
202	0xbcc5ca21	-0.024144234
203	0xbc9c1f2a	-0.019057829
204	0xbd3df0cc	-0.04637222
205	0x3c91eb58	0.017812416
206	0x3d46d057	0.048538532
207	0x3c907c6e	0.017637458
208	0x3d037dd0	0.032102406
209	0x3cca00f3	0.024658656
210	0x3d561eba	0.052275397
211	0x3d26b4fb	0.04069994
212	0x3ce9ad16	0.028524917
213	0xbbaedee4	-0.005336629
214	0x3c79887a	0.015230292
215	0x3d61ba81	0.055109505
216	0x3d111fdd	0.035430778
217	0xbc3b676b	-0.011438231
218	0xbd2423e5	-0.040073294
219	0x3d81765a	0.06321402
220	0x3d614f4f	0.055007275
221	0x3c234dcb	0.009967278
222	0x3d57ccf5	0.052685697
223	0x3c919db7	0.0177754
224	0xbd199b5d	-0.03750168
225	0x3d459120	0.048234105
226	0x3aab8983	0.0013087246
227	0x3d6d94d2	0.058003254
228	0xbd46d8ad	-0.048546482
229	0xbd7516e5	-0.059836287
230	0xbd0e1116	-0.034684263
231	0xbd1fe0d5	-0.039032776
232	0xbc8d2cce	-0.017233279
233	0xbd3c2d22	-0.04594148
234	0xbcbd3e9a	-0.02310114
235	0x3d7b9f34	0.061431125
236	0xbcb40054	-0.021972813
237	0x3d841274	0.06448832
238	0xbcd7e8e2	-0.026356164
239	0xbd1fcc23	-0.03901304
240	0x3bbfc277	0.0058520394
241	0xbd3e62ba	-0.04648087
242	0x3d37f014	0.04490669
243	0x3cc0bdcb	0.023528
244	0xbc1b3567	-0.009473181
245	0xbaca7062	-0.001544487
246	0x3c713be1	0.014723749
247	0x3c1e466c	0.009660345
248	0xbd4bdb2c	-0.049769565
249	0xbcc991c1	-0.024605634
250	0xbd64fa67	-0.055902865
251	0xbc494c2f	-0.01228623
252	0xbc5ae429	-0.013360062
253	0xbcd1442b	-0.0255452
254	0x3d791cb6	0.060818397
255	0xbc06ccdb	-0.008227552

encoder.critic_encoder.net.mlp.0.weight f4 [256, 4]
0	0xbea42ade	-0.32063955
1	0xbee6a58c	-0.45048177
2	0xbec9cf60	-0.39416027
3	0x3e5e3e1a	0.21703377
4	0xbe199965	-0.14999922
5	0xbed8f1c6	-0.42371958
6	0x3ee3e7c4	0.4451276
7	0x3ecc40f6	0.3989331
8	0x3e17e612	0.14833859
9	0xbe299094	-0.16559058
10	0xbeb4b084	-0.3529092
11	0x3ebf5579	0.37369898
12	0xbdea88e5	-0.11451892
13	0x3daf9d8c	0.085749716
14	0xbea94044	-0.33056843
15	0xbf071445	-0.52765304
16	0x3e84e7d0	0.2595811
17	0x3e587bdd	0.21141
18	0x3e71f093	0.23626928
19	0x3ea52125	0.3225185
20	0xbec1df0c	-0.37865484
21	0x3e9eed5a	0.3104046
22	0x3f00f67e	0.5037612
23	0x3ee32cb6	0.4437005
24	0xbeaae682	-0.33378989
25	0x3ed42a80	0.41438675
26	0x3efdfc7e	0.496067
27	0xbd197660	-0.037466407
28	0xbdd6b823	-0.1048434
29	0x3bf26310	0.007397063
30	0xbee817ae	-0.45330566
31	0xbe06d9e4	-0.13169056
32	0x3e464f48	0.19366181
33	0xbd9f5976	-0.07780735
34	0x3f01aaf5	0.50651485
35	0x3e108b28	0.14115584
36	0xbec6fce9	-0.3886483
37	0xbeacab08	-0.33724236
38	0x3f174458	0.5908866
39	0x3ed024c7	0.4065306
40	0x3db4de41	0.08831454
41	0x3cf428c0	0.029804587
42	0x3dfd2974	0.12361422
43	0x3ed64173	0.4184681
44	0x3e50d507	0.20393763
45	0x3efc276b	0.49248824
46	0x3ea403e7	0.32034227
47	0x3b426cc6	0.0029666885
48	0xbe555603	-0.20833592
49	0x3eee0f94	0.4649626
50	0xbebd4e1c	-0.36973655
51	0x3ef0c78d	0.47027245
52	0xbef1cbf0	-0.47225904
53	0xbefb3bdc	-0.49069107
54	0x3f0cdccc	0.5502441
55	0xbcdf5510	-0.02726224
56	0xbeed8fb8	-0.4639871
57	0x3debaab6	0.1150717
58	0x3eb0de2b	0.345445
59	0xbed6924f	-0.419085
60	0x3e251543	0.16121392
61	0x3d447272	0.047960706
62	0x3e9b9145	0.3038427
63	0xbddd0598	-0.107920825
64	0xbf0b9223	-0.5451986
65	0xbe02c134	-0.12769014
66	0x3ed61444	0.41812336
67	0xbed56204	-0.41676342
68	0x3eb93531	0.36173394
69	0x3dddb1e1	0.10824943
70	0xbeac7da0	-0.33689594
71	0xbdf9b679	-0.12193007
72	0x3dcfd029	0.10147125
73	0xbef33cab	-0.47507223
74	0xbead4e40	-0.33848763
75	0x3e9d51c7	0.30726454
76	0x3e0a2afe	0.13492963
77	0x3b9da3ef	0.004810802
78	0x3ea544d0	0.32279062
79	0x3e977740	0.29583168
80	0xbe142ff6	-0.1447142
81	0x3ee21da1	0.4416323
82	0xbdc21ff7	-0.09478753
83	0xbe99c841	-0.30035594
84	0x3ca1909b	0.019722274
85	0xbd834841	-0.06410266
86	0x3e499c47	0.19688521
87	0xbe6aeda0	-0.22942209
88	0x3e949f9a	0.29028016
89	0xbd9ba38c	-0.075995535
90	0xbe5cac26	-0.21550044
91	0x3f0d9f2f	0.5532102
92	0x3eb4cd08	0.35312676
93	0x3e9c7748	0.30559754
94	0xbea67cab	-0.3251699
95	0x3e7157b0	0.23568606
96	0x3ee6a0f8	0.45044684
97	0x3eb71a7e	0.357624
98	0xbe267055	-0.16253789
99	0x3d54c048	0.051941186
100	0xbdc27a84	-0.09496024
101	0xbef9adb0	-0.48765326
102	0x3f03844b	0.5137374
103	0xbe1647d0	-0.14675832
104	0x3e591879	0.21200742
105	0xbe854efb	-0.2603682
106	0xbe8cf82e	-0.27533096
107	0xbe9f5f63	-0.31127462
108	0x3e8ce40d	0.2751774
109	0xbdc192d0	-0.094518304
110	0x3f0943bd	0.53618985
111	0x3c1507e1	0.009096117
112	0x3ebc8954	0.36823523
113	0x3e6c08cd	0.23050232
114	0x3e9ca1c7	0.30592176
115	0x3ef0ea9f	0.47054002
116	0x3e00329d	0.12519307
117	0xbec4afcb	-0.3841537
118	0xbca70105	-0.020386228
119	0x3ea98b38	0.33114028
120	0xbe17bb3b	-0.14817517
121	0x3e9edc94	0.31027663
122	0xbe33f2d9	-0.17573108
123	0x3d6ac704	0.057318702
124	0xbe2de5b7	-0.1698216
125	0x3e7f545a	0.24934521
126	0xbddcdd87	-0.107844405
127	0x3ec32f6b	0.38122115
128	0xbf0a3e9e	-0.54001796
129	0xbef416e1	-0.47673705
130	0x3ea7811d	0.32715693
131	0x3e4e82f4	0.20167142
132	0xbdccc832	-0.09999122
133	0x3dfffe71	0.12499703
134	0x3e9d6f5d	0.30749026
135	0x3f0646ce	0.5245179
136	0xbd947858	-0.07249516
137	0x3e00577b	0.12533371
138	0xbce92117	-0.028458161
139	0xbe76edef	-0.24114202
140	0x3ced514c	0.02896943
141	0xbe0a9574	-0.13533574
142	0x3e02a85c	0.12759537
143	0x3f0e29e7	0.5553269
144	0x3e8feef9	0.2811201
145	0xbeed6a8f	-0.4637036
146	0x3e7a7ec2	0.24462417
147	0x3e6ae0f1	0.22937371
148	0x3eb28087	0.34863684
149	0x3e8e2cec	0.27768648
150	0x3e5cff44	0.21581751
151	0x3e76f758	0.24117792
152	0x3ec7a595	0.38993517
153	0xbd2351d9	-0.039872978
154	0x3e015bc1	0.12632658
155	0x3e7c9d86	0.24669465
156	0x3d9a5fc8	0.075378
157	0x3e8b7647	0.27238676
158	0x3f0c527d	0.5481337
159	0x3eb3a458	0.35086322
160	0x3ed475d0	0.41496134
161	0x3e1dd36d	0.15412684
162	0x3e0358af	0.12826799
163	0x3edadd3f	0.42746922
164	0xbe2368c5	-0.15957935
165	0x3eeef00c	0.46667516
166	0x3eb40bf4	0.3516537
167	0x3e0f2f2c	0.13982838
168	0x3ec4f739	0.38469866
169	0xbef56de0	-0.4793539
170	0x3cb18220	0.021668494
171	0xbd5c798d	-0.053826857
172	0x3d270fe5	0.040786643
173	0x3eba9f97	0.36449882
174	0x3d828ecb	0.06374892
175	0x3d8b229e	0.06793712
176	0x3eb7f95e	0.3593244
177	0x3e26f751	0.16305281
178	0xbe7f3166	-0.24921188
179	0x3d9ac70b	0.07557496
180	0x3ef184dc	0.47171676
181	0x3dd2559e	0.102702364
182	0x3edaa753	0.42705783
183	0xbe9a4701	-0.30132297
184	0x3ebcf2ff	0.3690414
185	0xbd812b7a	-0.063071206
186	0x3e3333b4	0.17500192
187	0x3e9bdb0c	0.30440557
188	0xbeded7ee	-0.43524116
189	0x3dba8417	0.091072254
190	0xbee8010a	-0.45313293
191	0xbea3b831	-0.31976464
192	0xbc364d89	-0.011126884
193	0x3e363168	0.17792284
194	0x3ebc24cf	0.36746833
195	0x3e943564	0.28946984
196	0xbee99fed	-0.45629826
197	0x3e9de5ff	0.30839536
198	0x3e995b3b	0.29952416
199	0xbe815d50	-0.25266504
200	0xbed0025a	-0.40626794
201	0xba9607ee	-0.0011446455
202	0xbe3a3b42	-0.18186668
203	0xbda8c010	-0.08239758
204	0xbe66e189	-0.22546972
205	0xbe900820	-0.281312
206	0x3e1f2ac3	0.15543656
207	0x3db120bd	0.086488225
208	0xbd324496	-0.04352244
209	0x3e83df56	0.2575633
210	0xbdc5828e	-0.09644042
211	0x3ec56cd8	0.38559604
212	0x3f10bc50	0.5653734
213	0xbee91519	-0.4552391
214	0x3daaca21	0.08339334
215	0xbe600e5b	-0.21880476
216	0x3e98753b	0.2977694
217	0xbe93b686	-0.28850192
218	0xbeab1375	-0.33413282
219	0x3e63974a	0.22225681
220	0x3eb9d8de	0.3629827
221	0x3e354add	0.1770434
222	0x3ee0e19a	0.4392212
223	0x3dbaba89	0.0911761
224	0x3e0d61c8	0.13806832
225	0xbd864a10	-0.06557095
226	0x3e824120	0.2544031
227	0xbe69fdb4	-0.22850686
228	0xbda9b771	-0.08286942
229	0x3ede4fc9	0.43420246
230	0xbe5f6768	-0.2181679
231	0x3dfb8a92	0.122822896
232	0x3e8bba64	0.27290642
233	0x3eef9f96	0.46801442
234	0xbddd2bc0	-0.1079936
235	0x3bd0d738	0.0063733123
236	0xbe36a027	-0.17834531
237	0x3e5877ff	0.21139525
238	0x3ea525ae	0.3225531
239	0xbe9463ce	-0.28982395
240	0xbdf81e51	-0.121151574
241	0xbebdbfdd	-0.37060443
242	0x3ee51cfe	0.44748682
243	0x3c746b8b	0.014918218
244	0x3d5ee055	0.05441316
245	0xbe40934f	-0.18806194
246	0x3eec4d54	0.46152747
247	0x3ed05bcc	0.40695035
248	0x3e28dfb7	0.1649159
249	0xbeede1c2	-0.46461302
250	0xbc40e632	-0.011773633
251	0x3da6e6c2	0.08149482
252	0xbe35c83c	-0.17752165
253	0xbed59e5d	-0.41722384
254	0xbeb1685c	-0.34649932
255	0xbeddee10	-0.4334569

encoder.critic_encoder.net.mlp.0.bias f4 [256]
0	0xbe040b6d	-0.12894984
1	0xbee555b5	-0.44791952
2	0x3ea5837f	0.32326886
3	0xbef838fb	-0.48480973
4	0x3ea2dba1	0.3180819
5	0x3e4a086a	0.19729772
6	0x3b80e0b4	0.0039330367
7	0x3ecf393c	0.40473354
8	0x3e14624b	0.14490621
9	0x3edc6f47	0.43053648
10	0xbebb8027	-0.3662121
11	0xbe2c53cc	-0.16828841
12	0xbe33108f	-0.17486785
13	0xbd3bcc7c	-0.04584931
14	0x3eee8711	0.46587422
15	0x3df54cbc	0.119775265
16	0x3ec22d33	0.3792511
17	0xbe702dc3	-0.23454957
18	0x3e76ec65	0.24113615
19	0x3ddba4b4	0.10724774
20	0x3da27e89	0.07934291
21	0xbe31652a	-0.17323747
22	0x3c88f948	0.016720429
23	0xbeaeb6b7	-0.34123775
24	0x3d8f1b9e	0.069876894
25	0x3e60a1ae	0.21936676
26	0x3e2a5673	0.1663454
27	0x3ed7b4e7	0.42130205
28	0x3e116a68	0.14200747
29	0xbed5f353	-0.41787204
30	0x3e495e5f	0.19664906
31	0x3b2b7ce0	0.002616696
32	0x3eb58b13	0.35457668
33	0x3f015678	0.50522566
34	0x3e7fe52d	0.24989767
35	0xbdd81b9e	-0.105521426
36	0x3e1d1c62	0.15342858
37	0xbed4ca44	-0.41560566
38	0x3e64b97c	0.22336382
39	0xbc9704eb	-0.018434962
40	0x3eb36ff1	0.35046342
41	0xbf066ccc	-0.5250976
42	0xbeffb746	-0.49944514
43	0x3efaa82f	0.4895644
44	0x3da31863	0.07963636
45	0xbcc3cf31	-0.023902507
46	0xbe00f703	-0.12594227
47	0x3ef93ceb	0.4867929
48	0xbea26613	-0.317185
49	0x3ecb8a12	0.39753777
50	0x3ea52de7	0.32261583
51	0xbe566f2d	-0.20940848
52	0x3e4a8405	0.19776924
53	0xbebe19b7	-0.37128994
54	0x3e004eb7	0.12530027
55	0x3ed73ecc	0.42040098
56	0x3ea8e2d4	0.32985556
57	0xbea3f31c	-0.32021415
58	0x3e8889eb	0.26667723
59	0x3ec960b9	0.39331606
60	0x3e97c9da	0.29646188
61	0xbecf2ff4	-0.40466273
62	0xbee4635f	-0.44607064
63	0xbee607a0	-0.44927692
64	0x3da35c53	0.07976594
65	0x3f01bc3a	0.50677836
66	0x3e5078b9	0.20358552
67	0xbe7b5505	-0.24544151
68	0xbec490fc	-0.38391864
69	0x3e8d6182	0.27613455
70	0x3ea07b6d	0.31344166
71	0xbeff913e	-0.49915498
72	0x3ca4a7b7	0.020099504
73	0xbeec4bda	-0.4615162
74	0x3e1f5e6d	0.15563364
75	0xbea65528	-0.32486844
76	0xbcfbeb3e	-0.03075182
77	0xbda454f8	-0.08024019
78	0x3ead321a	0.33827287
79	0x3dce3fa1	0.1007073
80	0x3ec26230	0.37965536
81	0x3ea85e1c	0.328843
82	0x3e3bf0e1	0.18353607
83	0xbef38569	-0.4756272
84	0xbe10dc71	-0.14146592
85	0x3e8daafe	0.2766952
86	0xbec334e7	-0.381263
87	0xbebd3224	-0.36952317
88	0x3d6f2981	0.05838919
89	0xbec2c286	-0.38039035
90	0xbe297276	-0.1654757
91	0x3eb80cff	0.35947415
92	0xbebab463	-0.3646575
93	0x3da32119	0.07965297
94	0x3ed40291	0.41408208
95	0xbe2a56db	-0.16634695
96	0x3e40e959	0.18839015
97	0x3d28f1c2	0.041246183
98	0xbe6cdc62	-0.23130944
99	0xbf063226	-0.5242027
100	0xbe641542	-0.22273734
101	0x3edf38d1	0.43598035
102	0x3e6fd7df	0.23422192
103	0x3dab3275	0.08359233
104	0x3ebba4b9	0.3664911
105	0x3eef200f	0.46704146
106	0xbd2d4062	-0.04229773
107	0xbee23658	-0.44182086
108	0xbe065d55	-0.13121541
109	0x3ea02906	0.31281298
110	0xbf0304eb	-0.5117938
111	0x3eb5d077	0.3551061
112	0x3e9206ba	0.28520757
113	0x3e34fd8d	0.17674847
114	0xbea0c181	-0.31397632
115	0x3ef8fc45	0.48629966
116	0x3e162572	0.14662722
117	0x3ec06661	0.3757811
118	0x3e22392f	0.15842126
119	0xbe4cfe76	-0.20018944
120	0xbec0d581	-0.3766289
121	0x3e0c27de	0.13687083
122	0xbeae1a60	-0.34004498
123	0x3e9156d5	0.2838656
124	0xbe86edfe	-0.2635345
125	0xbd5ce40d	-0.053928424
126	0x3cca3c39	0.02468692
127	0x3e71bc9c	0.23607105
128	0xbe06ae4d	-0.13152428
129	0xbed7a604	-0.42118847
130	0x3e16c302	0.14722827
131	0xbdcf9b90	-0.10137093
132	0xbe981e9f	-0.29710862
133	0x3e65fc24	0.22459465
134	0x3ed7a405	0.42117324
135	0x3ee04c4a	0.43808204
136	0xbe997b0a	-0.29976684
137	0xbefd0571	-0.49418214
138	0x3edbbaad	0.4291586
139	0xbd760ddf	-0.060071822
140	0xbe081e0e	-0.13292715
141	0xbdd317e3	-0.103072904
142	0x3d34a3ee	0.044101648
143	0x3efe4b59	0.4966686
144	0xbeef8257	-0.4677913
145	0xbf031729	-0.51207215
146	0x3f031aa8	0.5121255
147	0x3eacae82	0.3372689
148	0xbebb4e35	-0.36583105
149	0xbeeff433	-0.46865997
150	0xbe0ce463	-0.13758998
151	0x3ea06f8b	0.313351
152	0xbe6bd048	-0.23028672
153	0xbed698b6	-0.41913384
154	0xbd44236f	-0.047885355
155	0xbe67682f	-0.22598337
156	0x3e830bcc	0.25594938
157	0xbef8e3f7	-0.48611423
158	0xbe4e0319	-0.20118369
159	0x3e4a7291	0.19770266
160	0x3dfa1278	0.12210554
161	0xbefb8398	-0.49123836
162	0xbef1c42a	-0.47219974
163	0xbd40c2f4	-0.04706092
164	0x3ee4dfb0	0.4470191
165	0xbe134ad0	-0.14384007
166	0xbed34fc2	-0.41271788
167	0x3d84aee5	0.06478671
168	0x3e3c5ddb	0.18395178
169	0x3ec7829a	0.3896683
170	0xbed41a94	-0.41426528
171	0x3e58a4dd	0.2115664
172	0x3ef57bce	0.47946018
173	0xbef6c3d6	-0.48196286
174	0x3e046185	0.12927826
175	0xbeb0c150	-0.34522486
176	0xbf0185c9	-0.50594765
177	0x3dcd7258	0.10031575
178	0xbe609653	-0.21932344
179	0xbe914035	-0.283693
180	0xbea84872	-0.3286777
181	0xbf000db4	-0.5002091
182	0xbda76ab3	-0.08174648
183	0x3e927376	0.28603715
184	0x3ebb02eb	0.36525664
185	0x3b4038e7	0.0029330791
186	0xbc3a87e2	-0.011384936
187	0xbcc3a71f	-0.0238834
188	0x3e0c620f	0.13709281
189	0xbef97a65	-0.48726192
190	0x3ead34ea	0.33829433
191	0xbdc9cb8a	-0.09853275
192	0x3d617569	0.05504361
193	0xbc7f8f1d	-0.015598086
194	0x3e3ba4b6	0.18324551
195	0xbecef5fc	-0.40422046
196	0xbf029d15	-0.5102094
197	0x3cc65bb0	0.024213642
198	0x3d830d2e	0.06398998
199	0xbe05784c	-0.13034171
200	0xbed04037	-0.40673992
201	0xbe9f1402	-0.31069952
202	0xbe8ebe9f	-0.27879807
203	0x3e59869b	0.21242754
204	0x3e5c3413	0.2150424
205	0x3d900f3f	0.07034158
206	0xbcc4b8b6	-0.024013858
207	0xbedc0827	-0.4297497
208	0x3dec16c5	0.115277804
209	0x3eee4862	0.465396
210	0xbefddd16	-0.49582738
211	0xbd84f9c1	-0.06492949
212	0x3efa7f3b	0.48925194
213	0x3ee98e51	0.4561639
214	0x3e757e5a	0.2397398
215	0x3e760584	0.24025542
216	0xbe945ec4	-0.2897855
217	0xbd2803b9	-0.041019175
218	0x3cb4f12f	0.022087662
219	0x3e3f9db6	0.18712506
220	0xbe9d9076	-0.30774277
221	0xbe1a8c92	-0.15092686
222	0x3ea05859	0.31317404
223	0x3ed3a322	0.41335398
224	0xbeefd1b7	-0.46839687
225	0x3db9e024	0.090759546
226	0xbe2548bf	-0.16141032
227	0xbed4cfff	-0.41564938
228	0xbdf87d85	-0.12133316
229	0x3e460237	0.19336782
230	0x3df91102	0.12161447
231	0x3d76dd02	0.060269363
232	0x3ec69efd	0.38793173
233	0x3e32b212	0.17450741
234	0xbedfdb25	-0.43721882
235	0xbef95bd7	-0.4870288
236	0x3ee1eb5d	0.4412488
237	0x3d2fe3a1	0.042941693
238	0x3e57281b	0.21011393
239	0xbe5991d7	-0.2124704
240	0xbdb98567	-0.090586476
241	0x3e34a142	0.1763964
242	0x3dda2dd4	0.10653272
243	0x3ee613ef	0.44937083
244	0x3e993717	0.29924843
245	0xbe9133fc	-0.28359973
246	0xbebd2863	-0.36944875
247	0xbd22873b	-0.039679747
248	0x3ed4b358	0.41543078
249	0x3e83ac5f	0.25717446
250	0xbe82fa2f	-0.255815
251	0x3de63c14	0.11241928
252	0xbe113eab	-0.14184062
253	0x3dd3360e	0.103130445
254	0x3edd6282	0.43239218
255	0x3e3f7017	0.18695103

encoder.critic_encoder.net.mlp.2.weight f4 [256, 256]
0	0xbcae6527	-0.021288468
1	0x3ced9a7c	0.029004328
2	0x3d4cf6a3	0.0500399
3	0xbddb5d60	-0.10711169
4	0x3dbb3ff7	0.0914306
5	0x3cadf6a7	0.021235777
6	0x3d397053	0.045273136
7	0x3d503abc	0.050837263
8	0x3dbf8374	0.093512446
9	0x3cf4b50b	0.029871484
10	0xbd565f3a	-0.05233691
11	0xbba47e9b	-0.0050199754
12	0x3d2a66b6	0.04160186
13	0x3bf35c0f	0.0074267457
14	0x3d6206e7	0.055182364
15	0x3cd2280b	0.02565386
16	0x3d6635f4	0.056203797
17	0xbbf6f9bf	-0.0075370963
18	0xbc9c380e	-0.019069698
19	0x3d915752	0.07096733
20	0xbc8f4264	-0.017487712
21	0xbc8cd5b0	-0.017191738
22	0x3d8dbddf	0.06920981
23	0xbcf0862a	-0.02936085
24	0xbd57f3cc	-0.052722737
25	0x3c12eec7	0.008968062
26	0xbd85cee8	-0.06533605
27	0x3db8b6dd	0.090192534
28	0x3dd3f279	0.10348982
29	0xbcf16497	-0.02946691
30	0x3d2399ff	0.039941784
31	0xbcc51b16	-0.024060767
32	0x3ca879c0	0.020565867
33	0x3db7e355	0.08978907
34	0xbd5bc750	-0.053656876
35	0x3c3c10cc	0.011478614
36	0xbccd1815	-0.025035897
37	0x3cb698a5	0.022289583
38	0xbacc635f	-0.001559358
39	0x3dd11d2e	0.10210644
40	0x3d850aaa	0.06496175
41	0xbc3758ec	-0.011190634
42	0x3d61932d	0.055072
43	0x3cf853de	0.030313428
44	0xbbabb348	-0.005239878
45	0x3b567c53	0.0032727912
46	0x3d871860	0.06596446
47	0xbd5b89a5	-0.053598065
48	0x3d8b9ab6	0.06816618
49	0x3b8567de	0.00407122
50	0x3cfd0a3e	0.030888673
51	0xbd6f86fc	-0.05847834
52	0x3cfb4479	0.030672299
53	0xbc60fe1a	-0.0137324575
54	0x3d902528	0.07038337
55	0x3c5c9f42	0.013465704
56	0xbd183250	-0.037157357
57	0xbb34cda3	-0.002758839
58	0x3d8675ed	0.06565461
59	0xbd814c39	-0.063133664
60	0xbd0dd9c0	-0.03463149
61	0xbbb2299d	-0.0054370896
62	0xbcb62e8d	-0.022238994
63	0xbd15e94c	-0.036599442
64	0xbd18c1e4	-0.037294284
65	0xbb94eea1	-0.0045450483
66	0x3cb4aed8	0.022056028
67	0x3a41d482	0.0007394032
68	0xbd8508ee	-0.06495844
69	0x3d67b75e	0.056571357
70	0x3c57002d	0.0131226005
71	0xbcf20f2a	-0.029548246
72	0xbbcd69d1	-0.006268718
73	0xbcc9c6dc	-0.024630956
74	0x3d45d3f4	0.048297837
75	0xbcc98d1e	-0.024603423
76	0xbd34745d	-0.044056285
77	0xbdc6eac7	-0.09712749
78	0x3da8dba8	0.08245021
79	0x3c27c916	0.010240814
80	0x3d855015	0.06509415
81	0x3d25c2e7	0.040469076
82	0x3d95cf01	0.073148735
83	0xbd597b5a	-0.053096153
84	0xbd872e75	-0.06600658
85	0x3dc56810	0.09638989
86	0x3ce42d69	0.027853684
87	0xbd1d3c6c	-0.0383877
88	0xbbafc9a0	-0.0053646117
89	0xbc99e802	-0.018787388
90	0x3c4c02f5	0.012451877
91	0x3d805045	0.0626531
92	0xbdc15f15	-0.094419636
93	0x3d484776	0.048896275
94	0x3c5b2b8e	0.013377083
95	0xbca10462	-0.01965541
96	0x3d4d7fc2	0.050170667
97	0xbd7f95e0	-0.06239879
98	0xbdd29fed	-0.1028441
99	0xbd8636c6	-0.06553416
100	0xbd66e930	-0.05637473
101	0xbc8cbe1d	-0.017180497
102	0xbcef5379	-0.029214608
103	0xbc9fb4b3	-0.019495344
104	0x3d1e40b2	0.038635917
105	0x3d8829b6	0.06648581
106	0x3cdad5fa	0.02671336
107	0x3cbb7a2c	0.022885405
108	0x3b091acd	0.0020920516
109	0xbcf8084d	-0.030277396
110	0x3d572a3e	0.05253052
111	0xbd7fe3dd	-0.062473167
112	0x3d8b927c	0.06815049
113	0x3db1ff6f	0.08691298
114	0xbd2ce591	-0.04221112
115	0x3d9e87b4	0.07740727
116	0x3d9debb8	0.077109754
117	0x3d1af7c4	0.037833944
118	0xbc91a846	-0.017780434
119	0xbd95d44c	-0.07315883
120	0x3d8aa6c2	0.06770088
121	0xb753393c	-1.2589906e-05
122	0xbd1f2441	-0.038852934
123	0x3cac7ca6	0.02105553
124	0xbd2ed9e9	-0.042688284
125	0x3d1758a3	0.036949765
126	0x3bc0ce46	0.0058839647
127	0x3cd66c1b	0.026174596
128	0x3bf9e0df	0.0076256837
129	0xbda70339	-0.081549115
130	0xbc66870c	-0.014070284
131	0xbd423e3a	-0.047422625
132	0xbd86eced	-0.06588159
133	0xbb70c765	-0.0036739942
134	0x3de0248a	0.10944469
135	0x3c9d3b70	0.019193381
136	0xbcaaf1dd	-0.020867283
137	0xbda5cc6c	-0.08095631
138	0x3d75766b	0.059927385
139	0xbca55702	-0.02018309
140	0x3d638388	0.05554536
141	0x3c858742	0.016299848
142	0xbd71e999	-0.059060667
143	0xbbce6b01	-0.006299377
144	0xbc067fa8	-0.008209147
145	0xbc582159	-0.013191544
146	0x3c4f325d	0.012646285
147	0x3bb98d5f	0.0056626047
148	0xbcea2b41	-0.028585078
149	0x3c17749d	0.009244111
150	0xb8c203f8	-9.25138e-05
151	0xb85bc2c5	-5.2395062e-05
152	0xbc9c884b	-0.019107958
153	0x3a3c4cf5	0.00071830984
154	0xbcaea80c	-0.021320365
155	0xbbe2099c	-0.006898118
156	0x3d27fc71	0.04101223
157	0x3cc5e3db	0.024156502
158	0x3d2cd31a	0.04219351
159	0x3dc51104	0.09622386
160	0x3cf97747	0.030452384
161	0xbda6c441	-0.08142901
162	0xbd146378	-0.036227673
163	0x39af456e	0.0003343033
164	0x3d43ba5c	0.047785148
165	0x3cb9b96e	0.022671428
166	0x3c395451	0.0113116065
167	0x3d2a88d6	0.041634403
168	0xbcc3a931	-0.023884388
169	0x3d21dcf1	0.039517347
170	0x3c84d8a0	0.016216576
171	0xbc8f4dfe	-0.017493244
172	0xbcc42e39	-0.023947822
173	0x3c4201a7	0.011841214
174	0xbd01bdcc	-0.031675145
175	0xbbf24087	-0.007392946
176	0xbd8c27d8	-0.06843537
177	0xba2e3089	-0.00066448055
178	0xbc297971	-0.010343895
179	0x3b7edb98	0.0038888212
180	0xbcf2aaa4	-0.029622383
181	0xbd1279fa	-0.035760857
182	0xbd191ac5	-0.037379045
183	0x3d4da860	0.050209403
184	0x3bde28b8	0.0067797564
185	0x3c239189	0.009983429
186	0x3bb37837	0.005476977
187	0xbd094ec8	-0.033522397
188	0xbd7be664	-0.061499014
189	0xbc091b61	-0.008368344
190	0x3c92ab8d	0.017904067
191	0xbc18ff47	-0.009338207
192	0x3a7fa7cc	0.0009752482
193	0xbcadd365	-0.021218965
194	0x3cf8caea	0.030370194
195	0xbd93dac4	-0.072194606
196	0xbd53d943	-0.05172087
197	0xbd1b83fd	-0.03796767
198	0x3d3b5bcb	0.045741837
199	0x3d03c15b	0.03216682
200	0xbb6e618a	-0.0036374056
201	0x3cef91af	0.029244272
202	0x3cbe3eee	0.023223367
203	0x3d6f8f5c	0.058486328
204	0x3b960b54	0.004578987
205	0xbb7d1029	-0.0038614369
206	0x3d858b8f	0.06520759
207	0xbc50f791	-0.012754337
208	0x3d3bf32c	0.045886204
209	0x3d182c94	0.037151888
210	0xbd8db4ff	-0.06919288
211	0xbda7710a	-0.08175857
212	0x3d67788d	0.05651145
213	0x3d5a258c	0.053258464
214	0x3d3810cd	0.044937897
215	0xbcc215a2	-0.023691956
216	0xbc53e115	-0.012932082
217	0xbcda308f	-0.026634483
218	0x3cd5e9dc	0.02611249
219	0x3cf8aae5	0.030354926
220	0xbcb650e0	-0.022255361
221	0xbca0fcbd	-0.019651765
222	0x3c508c43	0.0127287535
223	0xbd189f15	-0.037261087
224	0x3ab2f63e	0.0013653708
225	0x3bb77ac4	0.0055993516
226	0xbd227b9b	-0.03966866
227	0xbd0d10f9	-0.034440015
228	0x3c00a73e	0.007852374
229	0x3d3bad45	0.04581954
230	0x3a9e76e1	0.0012089872
231	0x3d923bfa	0.07140346
232	0x3d8b28b0	0.0679487
233	0x3d1fdb17	0.0390273
234	0xbd90004c	-0.070313066
235	0xbcd89914	-0.02644018
236	0x3cee4a0b	0.02908804
237	0xbd4362d9	-0.04770169
238	0x3d1b2d1e	0.037884824
239	0x3d7b97f7	0.06142422
240	0x3d5d1bbc	0.053981528
241	0x3dade9fd	0.08491895
242	0x3c8ae813	0.016956365
243	0xbd75c9f9	-0.06000707
244	0x3d54ee92	0.05198533
245	0xbd9e9ea1	-0.077451
246	0x3cac2a08	0.021016136
247	0x3d25cfde	0.04048144
248	0x3cb973e6	0.022638272
249	0x3c506449	0.012719222
250	0x3ce28b29	0.027654247
251	0xbd054282	-0.03253413
252	0xbd64b6f6	-0.055838548
253	0x3de05b87	0.109549575
254	0x3cf1d103	0.02951861
255	0x3d61b11d	0.05510055
