resources/trained_policies/cartpole_v2/checkpoint_000010/learner/module_state/default_policy/module_state_dir/module_state.pt (torch, 546946 bytes, 11 tensors)

encoder.actor_encoder.net.mlp.0.weight f4 [256, 4]
-0.43510073 -0.31891656 -0.17532729 0.010779709 0.044005953 -0.13380037 -0.37836045 0.46612546
0.06236258 -0.23133337 0.2688046 0.46518427 0.19046578 0.32041174 -0.1163523 -0.393055
0.16807085 0.39437056 -0.28342965 -0.41327175 0.37074697 -0.35035354 0.6877943 0.42417037
-0.06903827 0.071434684 -0.21223244 0.11741288 -0.43117115 -0.037717845 -0.34850115 0.45599365
0.5082421 -0.08363341 -0.35907176 0.5175721 0.04684101 0.068268724 -0.4050058 -0.53002757
-0.3181337 0.12797937 0.5091504 0.4130167 -0.29969376 0.11773724 -0.6259225 -0.20762719
-0.05773752 0.13841131 0.6411913 0.38258904 -0.33982906 -0.20953044 0.5328157 0.24201082
0.024280412 0.37831748 0.38827 -0.121311 -0.4961321 -0.14047126 -0.58222836 -0.35642916
-0.13810162 -0.23949407 -0.19579148 0.5271901 -0.107788496 0.28453478 0.56147057 0.03918735
-0.18108144 -0.17887662 0.12835641 -0.09031976 0.41780227 -0.24378271 0.56166714 0.27224413
0.12791777 -0.027561089 0.3827004 0.12240117 0.24577644 -0.04279131 0.41248178 -0.04745939
0.40312746 0.13786787 0.016301105 -0.45983988 0.15221724 0.07597326 -0.2109434 0.39949587
-0.16886647 0.3345179 -0.40620044 -0.35347354 0.15007478 -0.3142805 0.31500757 0.33923855
-0.44498393 0.24175595 0.5710067 -0.33501166 0.031162929 -0.36114243 0.6271529 0.31741163
0.47521013 -0.33212313 0.13889085 -0.021104984 0.32385546 0.106790826 0.32004932 0.07537477
0.035793897 0.036235157 0.25722876 0.30791634 -0.21363604 0.46269512 -0.56059057 -0.33544645
0.18964188 -0.16698293 -0.02881564 0.54664433 -0.3730178 0.18527217 0.5488559 -0.07399331
0.3279817 -0.009823392 -0.47472507 0.3964121 -0.22329815 0.23010017 0.2704949 -0.110783406
0.116178095 0.31572217 0.49579895 0.1117269 -0.37742174 -0.17048275 -0.4457948 0.17803466
0.43730322 0.28308362 0.5681565 0.41348213 0.38103855 -0.12572488 0.16222276 -0.38499293
0.3864863 -0.25996235 -0.054002088 -0.43482563 0.15063186 0.16286853 0.27068546 0.25543463
0.37158108 -0.47488016 0.3675117 0.06416458 0.072835885 0.122741394 0.5463706 0.25319922
0.10576093 -0.112760074 0.10230158 -0.30747136 -0.006582004 0.41222116 -0.54161537 -0.14674151
0.33988893 0.52848536 0.14576072 0.085628055 -0.3760945 0.07017715 0.043032728 -0.39951405
0.21194524 -0.19182937 -0.15523982 -0.35418466 0.45777816 0.3932052 0.33313152 0.2270946
0.3208178 0.13532309 0.49852434 0.03409811 -0.27633578 0.1778895 0.5107706 0.48604798
0.23996086 -0.22723196 0.37285778 -0.07464113 -0.12262885 0.321008 -0.256452 -0.34758455
-0.07559121 0.3158224 0.34738597 0.23758082 0.2175784 0.2615157 -0.4983485 0.006905315
-0.48705223 0.011329733 0.5395874 0.022792863 -0.19270822 0.23830444 -0.51425076 -0.06320987
-0.2084756 -0.058766782 0.31948414 -0.343339 0.3607805 -0.13153982 0.0038519315 -0.3398032
-0.0065648714 -0.35632297 -0.13424613 0.18891889 0.082812674 0.05216532 0.47303146 0.1688977
0.040252786 -0.40100616 0.43675092 -0.02522162 -0.06898948 -0.060143728 -0.23406646 -0.17598954
00000000: 86c5 debe 0849 a3be ff88 33be 609d 303c
00000010: 963f 343d f702 09be 76b8 c1be ffa7 ee3e
00000020: e86f 7f3d a8e2 6cbe c2a0 893e a22c ee3e
00000030: 7609 433e 020d a43e 1d4a eebd 813e c9be
00000040: c41a 2c3e f0ea c93e b11d 91be 5b98 d3be
00000050: 8cd2 bd3e 8a61 b3be 4a13 303f dc2c d93e
00000060: f063 8dbd 594c 923d 7653 59be 2a76 f03d
00000070: 77c2 dcbe 077e 1abd be6e b2be 0078 e93e
00000080: 271c 023f fe47 abbd 41d8 b7be 9b7f 043f
00000090: 5cdc 3f3d 79d0 8b3d ec5c cfbe e3af 07bf
000000a0: 6ce2 a2be 060d 033e ae57 023f ed76 d33e
000000b0: 7671 99be 3920 f13d 753c 20bf 399c 54be
000000c0: 2e7e 6cbd b2bb 0d3e 1d25 243f b6e2 c33e
000000d0: 13fe adbe 268f 56be 9c66 083f afd1 773e
000000e0: b7e7 c63c d4b2 c13e 53cb c63e e771 f8bd
000000f0: 0705 febe b3d7 0fbe eb0c 15bf e27d b6be
00000100: 836a 0dbe ef3d 75be 907d 48be eef5 063f
00000110: 37c0 dcbd 8bae 913e 89bc 0f3f ea82 203d
00000120: 6a6d 39be 6f2b 37be dd6f 033e 91f9 b8bd
00000130: 2eea d53e 2da2 79be 6bc9 0f3f 9563 8b3e
00000140: e0fc 023e cbc7 e1bc 4ff1 c33e 77ad fa3d
00000150: d2ac 7b3e f145 2fbd d030 d33e c764 42bd
00000160: b966 ce3e 3c2d 0d3e e589 853c 2270 ebbe
00000170: d6de 1b3e de97 9b3d 8c01 58be b98a cc3e
00000180: 55eb 2cbe ee45 ab3e 81f9 cfbe 7cfa b4be
00000190: 34ad 193e 60e9 a0be ac48 a13e adb0 ad3e
000001a0: efd4 e3be df8e 773e 7f2d 123f a686 abbe
000001b0: 6649 ff3c a9e7 b8be 188d 203f c783 a23e
000001c0: be4e f33e 0b0c aabe 6739 0e3e 5ce4 acbc
000001d0: 62d0 a53e 26b5 da3d 81dd a33e 165e 9a3d
000001e0: 9f9c 123d 516b 143d 7db3 833e 36a7 9d3e
000001f0: 68c3 5abe 60e6 ec3e dd82 0fbf a3bf abbe
00000200: 7b31 423e 93fd 2abe c70e ecbc e2f0 0b3f
00000210: 30fc bebe fdb7 3d3e d281 0c3f ce89 97bd
00000220: 38ed a73e 4bf2 20bc 2a0f f3be 87f6 ca3e
00000230: 45a8 64be 619f 6b3e 4f7e 8a3e 69e2 e2bd
00000240: c8ee ed3d 56a6 a13e 5cd9 fd3e 13d1 e43d
00000250: 6c3d c1be 0893 2ebe 373f e4be b84e 363e
00000260: 35e6 df3e 56f0 903e b472 113f eeb3 d33e
00000270: 7c17 c33e 06be 00be b91d 263e cb1d c5be
00000280: 88e1 c53e c919 85be 4b31 5dbd 77a1 debe
00000290: 3d3f 1a3e 02c7 263e 4997 8a3e 54c8 823e
000002a0: e03f be3e 7e23 f3be 7e2a bc3e b868 833d
000002b0: fb2a 953d d75f fb3d f2de 0b3f 54a3 813e
000002c0: 3099 d83d c1ee e6bd 7e83 d13d e36c 9dbe
000002d0: daad d7bb a70e d33e 4ea7 0abf 6843 16be
000002e0: ec05 ae3e d14a 073f 4c42 153e c35d af3d
000002f0: 758f c0be 0ab9 8f3d 1643 303d 1b8d ccbe
00000300: 2c08 593e eb6e 44be 30f7 1ebe b157 b5be
00000310: e661 ea3e 3152 c93e 3790 aa3e 7d8b 683e
00000320: 3b42 a43e 2392 0a3e 953e ff3e 76aa 0b3d
00000330: e27b 8dbe aa28 363e ddc1 023f 48db f83e
00000340: 4db8 753e 7faf 68be 37e7 be3e 73dd 98bd
00000350: d624 fbbd 295b a43e ad4d 83be 9af6 b1be
00000360: 90cf 9abd 79b3 a13e 93dc b13e 6348 733e
00000370: dfcc 5e3e 63e5 853e 8927 ffbe fb45 e23b
00000380: e95e f9be 58a0 393c 6622 0a3f 19b8 ba3c
00000390: 4e55 45be 1406 743e f0a5 03bf 2d74 81bd
000003a0: a17a 55be 70b5 70bd 6d93 a33e 21ca afbe
000003b0: 39b8 b83e 60b2 06be b070 7c3b affa adbe
000003c0: 221e d7bb f76f b6be d177 09be f473 413e
000003d0: b199 a93d 4dab 553d 2e31 f23e 85f3 2c3e
000003e0: 1be0 243d ae50 cdbe d19d df3e 929d cebc
000003f0: 5b4a 8dbd 4559 76bd 1eaf 6fbe 9a36 34be

encoder.actor_encoder.net.mlp.0.bias f4 [256]
-0.25203997 -0.07990073 -0.26106018 -0.25077367 -0.34879744 -0.3790641 -0.11022448 0.40147558
0.2378429 -0.13060856 0.025385821 -0.1125816 0.30600393 0.48537162 -0.41637886 -0.055438124
-0.33832732 -0.38739577 0.183012 -0.33505476 -0.068087704 0.4749708 -0.18663527 -0.056647595
0.29578727 0.35839134 0.05158806 -0.02732869 0.41259322 -0.10164938 -0.018081594 -0.14141615
-0.12784386 0.08296401 0.3575781 -0.025309982 -0.2129685 0.33057436 -0.41904494 -0.20458531
0.2893077 -0.015842319 -0.18220225 -0.013708281 0.07602111 0.22757103 -0.18233383 0.04210235
-0.42274046 0.33737075 -0.34187865 0.04650907 0.1402888 0.21232265 -0.27973223 0.07962611
-0.36652407 -0.23680492 0.4461338 -0.47189876 0.21409437 -0.14666227 0.07035401 0.1500307
-0.3863029 -0.03473631 -0.07387835 0.15472867 -0.21427661 0.30474675 -0.23057316 -0.06465092
0.34009367 -0.058921337 -0.26507255 0.14597203 0.07363432 -0.35090917 0.35358724 -0.08307194
-0.015470645 -0.1496741 0.14103423 0.20305686 -0.022977397 0.25808933 -0.006266978 -0.11790048
-0.40034413 -0.17413491 -0.21117727 -0.09432507 -0.46724832 -0.39782482 0.4657259 -0.27968124
0.11452761 -0.18424273 0.17980058 0.4644811 -0.40220013 0.063045986 0.2189279 0.2657403
0.34712747 -0.063073866 0.15830436 -0.19260979 0.3268654 0.1845836 -0.01778542 -0.020044103
0.21068257 0.2166213 0.033778474 0.20014983 0.11776521 -0.3135378 0.4456647 0.1948774
0.44456998 0.42529303 -0.3381142 0.15328681 0.33628917 -0.09371928 -0.41665652 0.1882899
0.2794804 -0.48786104 0.2931916 0.3986825 -0.103390664 0.34605896 0.36512312 -0.39320105
0.35311154 0.091176316 0.29292065 0.4547197 0.31004366 -0.3828815 0.3978753 -0.46456534
-0.2234843 0.19747528 0.47871852 -0.20868775 0.21289627 0.061980203 -0.41221157 -0.043696698
0.018576672 -0.32269225 -0.15211129 0.15607175 0.087909415 -0.20527598 -0.27286935 -0.2648482
-0.00091898756 0.023348277 0.09863398 -0.11263061 -0.39170447 -0.41554204 0.0015916912 -0.087483354
-0.194745 0.28871107 0.40515012 -0.08264372 0.20016976 -0.4112106 0.21870042 -0.05689656
-0.10906417 0.46911642 -0.2585466 0.02703359 -0.37992355 0.30701706 -0.007988887 -0.17002158
-0.45788646 -0.46701148 -0.23752774 0.09269574 -0.090834424 0.1166813 -0.46240547 -0.29856387
-0.001976226 -0.31575975 0.037365563 -0.14597432 -0.15631494 0.32826823 0.06048157 0.115103245
0.35072306 -0.18120761 0.46305412 0.3557394 -0.26289552 -0.08406996 0.38016173 0.2711158
0.38780832 0.39285228 0.3438285 -0.4946907 -0.39258507 0.4781355 0.46830356 -0.094934136
0.08867288 -0.3767963 -0.06566203 0.2683133 0.17840244 0.13407782 0.4208598 0.23157638
-0.39301875 0.32339448 0.096629865 0.4222237 0.07709461 -0.22592653 0.49544108 -0.4703341
0.3159286 -0.2746214 0.45540836 0.07300196 -0.117318705 0.37709466 0.21119462 -0.39223897
0.089322574 -0.10227754 0.24787681 0.41628113 -0.0815817 0.36352557 -0.25883695 -0.13540037
0.35851035 -0.32448286 0.45385632 0.32101217 0.22211665 0.23650269 -0.23267443 -0.10988229
00000000: 620b 81be fea2 a3bd aea9 85be 6865 80be
00000010: 9495 b2be b114 c2be 5fbd e1bd 358e cd3e
00000020: 178d 733e 40be 05be edf5 cf3c 2f91 e6bd
00000030: 8cac 9c3e a182 f83e 9c2f d5be 1613 63bd
00000040: 3d39 adbe bd58 c6be 7f67 3b3e 4c8c abbe
00000050: 9171 8bbd 5f2f f33e 511d 3fbe 4f07 68bd
00000060: 6e71 973e 127f b73e 004e 533d 6be0 dfbc
00000070: 6b3f d33e 8d2d d0bd da1f 94bc 65cf 10be
00000080: 80e9 02be 09e9 a93d 7a14 b73e e156 cfbc
00000090: 6a14 5abe 0b41 a93e 0f8d d6be d07e 51be
000000a0: 2420 943e c0c7 81bc 3a93 3abe b398 60bc
000000b0: f5b0 9b3d 6108 693e b8b5 3abe 8473 2c3d
000000c0: 7071 d8be dcbb ac3e b80a afbe 4b80 3e3d
000000d0: dea7 0f3e 1c6b 593e 1039 8fbe 0413 a33d
000000e0: 0ba9 bbbe fd7c 72be a66b e43e b79c f1be
000000f0: 8e3b 5b3e a22e 16be c315 903d a6a1 193e
00000100: 7ec9 c5be a947 0ebd 884d 97bd 3171 1e3e
00000110: 546b 5bbe c407 9c3e 5f1b 6cbe b467 84bd
00000120: c220 ae3e 8057 71bd 97b7 87be b179 153e
00000130: 97cd 963d 5eaa b3be 6309 b53e 9f21 aabd
00000140: 9778 7dbc 2b44 19be 476b 103e 23ee 4f3e
00000150: 183b bcbc 4924 843e 395b cdbb cf75 f1bd
00000160: e8f9 ccbe 6c50 32be db3e 58be 812d c1bd
00000170: 2c3b efbe b2af cbbe a073 ee3e 6132 8fbe
00000180: 748d ea3d 20aa 3cbe a51d 383e 77d0 ed3e
00000190: 2ded cdbe 411e 813d a32e 603e 1d0f 883e
000001a0: b1ba b13e df2c 81bd 8a1a 223e 803b 45be
000001b0: e75a a73e 7c03 3d3e bbb2 91bc 8833 a4bc
000001c0: 2cbd 573e f9d1 5d3e 4c5b 0a3d 14f4 4c3e
000001d0: e32e f13d 0788 a0be 2a2e e43e f18d 473e
000001e0: ad9e e33e 02c0 d93e 4e1d adbe 38f7 1c3e
000001f0: 182e ac3e e5ef bfbd 0154 d5be 11cf 403e
00000200: 0e18 8f3e ecc8 f9be 361d 963e 1d20 cc3e
00000210: 7cbe d3bd a42e b13e 6bf1 ba3e a651 c9be
00000220: 09cb b43e a6ba ba3d b2f9 953e 05d1 e83e
00000230: 0bbe 9e3e 0b09 c4be 50b6 cb3e 82db edbe
00000240: 11d9 64be f636 4a3e 981a f53e 3eb2 55be
00000250: 7b01 5a3e f4de 7d3d 650d d3be 4ffb 32bd
00000260: 1b2e 983c eb37 a5be 10c3 1bbe 46d1 1f3e
00000270: da09 b43d de33 52be 88b5 8bbe 2f9a 87be
00000280: 36e8 70ba e344 bf3c 9d00 ca3d e1aa e6bd
00000290: 7d8d c8be edc1 d4be 4ba0 d03a 792a b3bd
000002a0: 3c6b 47be f0d1 933e d66f cf3e 1c41 a9bd
000002b0: 4df9 4c3e 328a d2be 01f3 5f3e 5e0c 69bd
000002c0: 095d dfbd 0730 f03e 3860 84be 8c75 dd3c
000002d0: 5785 c2be 5731 9d3e d2e3 02bc 231a 2ebe
000002e0: 1870 eabe 211c efbe 793a 73be 44d7 bd3d
000002f0: 6607 babd 9bf6 ee3d 69c0 ecbe 5ddd 98be
00000300: 9283 01bb 43ab a1be a20c 193d 4b7a 15be
00000310: 0611 20be c612 a83e 86bb 773d 40bb eb3d
00000320: f991 b33e 7d8e 39be 6e15 ed3e 7a23 b63e
00000330: 3e9a 86be df2c acbd 8fa4 c23e b1cf 8a3e
00000340: d08e c63e ef23 c93e 4a0a b03e 1948 fdbe
00000350: e900 c9be 2dce f43e 7cc5 ef3e d46c c2bd
00000360: 209a b53d 72eb c0be d079 86bd 5c60 893e
00000370: 21af 363e b24b 093e f07a d73e 5c22 6d3e
00000380: c139 c9be f693 a53e e1e5 c53d b42d d83e
00000390: c7e3 9d3d 4959 67be 74aa fd3e a2cf f0be
000003a0: 65c1 a13e 2d9b 8cbe 492b e93e 0d82 953d
000003b0: ca44 f0bd 8d12 c13e 6743 583e 8cd3 c8be
000003c0: c1ee b63d e376 d1bd 6bd3 7d3e cd22 d53e
000003d0: 4e14 a7bd 0620 ba3e 4786 84be 65a6 0abe
000003e0: ab8e b73e 9e22 a6be db5f e83e b55b a43e
000003f0: 8c72 633e c32d 723e 3542 6ebe f709 e1bd

encoder.actor_encoder.net.mlp.2.weight f4 [256, 256]
0.032460894 0.035711236 -0.046929933 -0.026084129 -0.0056899865 -0.024310289 -0.050180443 -0.082767546
0.04671373 -0.026468117 0.017947374 0.056132097 -0.049107846 -0.032790404 -0.052253395 0.07042064
0.027941784 -0.051799327 -0.010544273 -0.03759355 -0.021027055 0.050698187 0.0655507 -0.04753002
-0.013829935 0.053343277 -0.030348755 0.048118763 0.053592727 -0.04416263 -0.0077603897 -0.003559634
-0.05609295 0.0327644 0.03497903 -0.030930545 0.0024481402 -0.017004125 -0.01094277 0.046427798
0.015678668 -0.039232116 -0.003103856 0.018262971 0.041226625 -0.0371558 0.0050473227 0.056970283
0.0019383759 0.019805871 -0.021089824 0.015321848 0.012890889 0.03764804 0.027185896 0.051545616
0.016505376 -0.050992638 -0.033016607 0.07459747 0.049162768 0.0328371 -0.02137781 0.046761874
0.0135787 -0.026927728 -0.039030466 0.056595523 0.07174386 0.000763513 -0.05886916 -0.0014445913
0.04658749 -0.027078934 0.022651292 0.015349222 -0.0045498246 -0.060817763 0.03632257 -0.047158618
0.05688148 0.058033478 -0.040962007 0.03318043 0.05719058 -0.02822635 0.051250655 -0.0004938284
-0.0070183235 -0.001811667 0.06857706 -0.010261563 0.008085138 -0.016631264 0.030070893 0.06254096
-0.025835576 -0.0026057067 0.027160954 0.052776206 0.024269892 0.038448133 0.0063693332 -0.0741508
0.021743588 0.022602629 -0.059535522 -0.027757548 -0.019060636 -0.041639645 0.01941033 -0.033241536
0.0011009787 -0.068975225 0.015390283 -0.048985597 0.026207574 -0.0050257253 -0.059167262 -0.041936465
-0.013218985 -0.0019812929 -0.04365015 -0.01825374 -0.051913317 0.03607457 0.012827772 -0.0524714
0.0014901129 -0.026635159 -0.04680167 -0.03281712 0.0427909 0.057616755 -0.049810488 0.06582297
-0.0029613804 -0.010045788 -0.054883964 0.0060700565 -0.04296266 -0.0116596315 -0.027213784 0.061120607
0.042706117 0.014256751 0.014085322 -0.0005944187 -0.059001338 -0.03946733 0.022253195 0.05730488
0.0642805 -0.018124184 0.050787885 -0.020612067 -0.0088563105 -0.018683482 8.0431355e-06 0.03248966
-0.049962163 -0.046742287 0.023656102 -0.016630987 -0.004835529 -0.0051437845 -0.012435495 -0.029705992
-0.04071343 -0.041450743 0.0030641574 0.055155028 -0.04989291 0.02198167 0.04894493 0.04874724
-0.008893111 -0.026105711 0.009968433 -0.054091692 0.044345602 -0.0032451435 -0.029059816 -0.015079896
0.011784687 -0.03789045 -0.04847542 -0.040729873 -0.036843088 0.016691333 -0.021924626 0.019396042
-0.028869973 0.009401941 -0.037595283 0.060122903 0.07250825 0.031155055 0.03197013 0.037516557
-0.037446484 0.03794339 -0.057846457 -0.039088283 0.01881191 0.0044522868 0.0625304 -0.007807342
-0.007668446 0.016916439 -0.015165568 0.03731174 0.026880048 -0.023910975 0.0017191702 -0.017511442
0.02637435 -0.0011044759 -0.014625499 0.009511579 -0.0017948557 0.044068437 -0.01785646 -0.05216006
-0.0072236527 -0.055083744 0.021216031 0.0024431772 -0.0044525787 -0.033535328 -0.06851596 0.0084301885
0.0011448406 0.027494049 -0.05694408 0.024043884 0.03754809 0.01856835 -0.013428314 -0.02963405
-0.011953578 0.064938 -0.01422547 -0.02648863 -0.05705821 -0.008866881 -0.02421719 0.033486657
-0.05076127 -0.019127468 0.03085512 0.044166178 0.042495675 -0.028648632 0.056969654 0.07218097
00000000: b7f5 043d f245 123d 9a39 40bd 62ae d5bc
00000010: 1173 babb 5f26 c7bc 028a 4dbd 0882 a9bd
00000020: e556 3f3d aad3 d8bc 5f06 933c c5ea 653d
00000030: 4f25 49bd 3b4f 06bd a807 56bd b238 903d
00000040: 2be6 e43c 882b 54bd e3c1 2cbc b2fb 19bd
00000050: ee40 acbc e7a8 4f3d 723f 863d d7ae 42bd
00000060: f496 62bc 7b7e 5a3d f49d f8bc 2e18 453d
00000070: 0c84 5b3d e0e3 34bd de4a febb c048 69bb
00000080: b9c1 65bd f733 063d 2c46 0f3d 0e62 fdbc
00000090: fa70 203b 3c4c 8bbc 4e49 33bc 132b 3e3d
000000a0: 8d70 803c dbb1 20bd 106a 4bbb 3a9c 953c
000000b0: 40dd 283d ae30 18bd 0364 a53b ac59 693d
000000c0: 1a11 fe3a ec3f a23c 91c4 acbc 7d08 7b3c
000000d0: 4f34 533c d534 1a3d f5b4 de3c 7f21 533d
000000e0: 4836 873c a8dd 50bd 6c3c 07bd 8fc6 983d
000000f0: e65e 493d 3280 063d 8420 afbc 6189 3f3d
00000100: 3279 5e3c 8a97 dcbc 69de 1fbd b5d0 673d
00000110: 72ee 923d 7d26 483a ca20 71bd 7158 bdba
00000120: 86d2 3e3d a4d4 ddbc 348f b93c 4e7b 7b3c
00000130: b216 95bb 0c1c 79bd fac6 143d 6529 41bd
00000140: 8efc 683d 83b4 6d3d c7c7 27bd 34e8 073d
00000150: ab40 6a3d f23a e7bc 35ec 513d 4374 01ba
00000160: f7f9 e5bb 7575 edba 2172 8c3d 1d20 28bc
00000170: 8777 043c 4a3e 88bc 3c57 f63c 7a15 803d
00000180: 21a5 d3bc 81c4 2abb a680 de3c dd2b 583d
00000190: a7d1 c63c ca7b 1d3d d7b5 d03b 60dc 97bd
000001a0: 9c1f b23c 2629 b93c 85db 73bd cc63 e3bc
000001b0: 0d25 9cbc 558e 2abd 6a02 9f3c 4728 08bd
000001c0: b74e 903a e242 8dbd 8727 7c3c 1fa5 48bd
000001d0: 44b1 d63c d7ae a4bb 5f59 72bd 92c5 2bbd
000001e0: 7194 58bc 94d8 01bb 80ca 32bd de88 95bc
000001f0: 0fa3 54bd eec2 133d 932b 523c 40ec 56bd
00000200: e44f c33a fa31 dabc 1cb3 3fbd 3f6b 06bd
00000210: 8345 2f3d 8cff 6b3d 1506 4cbd 31ce 863d
00000220: b813 42bb 1797 24bc 02ce 60bd 53e7 c63b
00000230: 9df9 2fbd 0a08 3fbc 71ef debc 9a59 7a3d
00000240: 9cec 2e3d 2695 693c 1fc6 663c c4d2 1bba
00000250: 63ab 71bd 7fa8 21bd 554c b63c 86b8 6a3d
00000260: 7fa5 833d 2b79 94bc f506 503d a3da a8bc
00000270: 0f1a 11bc 1a0e 99bc 01f1 0637 e113 053d
00000280: 20a5 4cbd d774 3fbd 71ca c13c b53d 88bc
00000290: 5b73 9ebb 318d a8bb 3fbe 4bbc fb59 f3bc
000002a0: 20c3 26bd 41c8 29bd 08d0 483b 3dea 613d
000002b0: 825c 4cbd e712 b43c 7b7a 483d 30ab 473d
000002c0: 69b4 11bc a5db d5bc a352 233c 408f 5dbd
000002d0: bca3 353d 79ac 54bb da0e eebc ab11 77bc
000002e0: 8f14 413c 0433 1bbd 298e 46bd 5ed4 26bd
000002f0: c7e8 16bd 43bc 883c 469b b3bc 73e4 9e3c
00000300: b980 ecbc 990a 1a3c 83fd 19bd 6f43 763d
00000310: 357f 943d e338 ff3c 1cf3 023d f6aa 193d
00000320: 7c61 19bd 876a 1b3d 68f0 6cbd 091b 20bd
00000330: 6f1b 9a3c 7de4 913b f00f 803d bbd4 ffbb
00000340: 9647 fbbb 5894 8a3c 0179 78bc 32d4 183d
00000350: 8c33 dc3c f3e0 c3bc c855 e13a 2874 8fbc
00000360: 050f d83c 10c4 90ba ca9f 6fbc 74d6 1b3c
00000370: 5d41 ebba 1b81 343d b647 92bc c9a5 55bd
00000380: 64b4 ecbb 7e9f 61bd 3ecd ad3c b61d 203b
00000390: f0e6 91bb 575c 09bd 1852 8cbd c61e 0a3c
000003a0: 7a0e 963a 333b e13c 323e 69bd aef7 c43c
000003b0: 07cc 193d a71c 983c 6e02 5cbc 1bc3 f2bc
000003c0: f1d8 43bc 37fe 843d f211 69bc affe d8bc
000003d0: dfb5 69bd 6546 11bc 2163 c6bc 4e29 093d
000003e0: 0deb 4fbd 35b1 9cbc e0c3 fc3c 98e7 343d
000003f0: f20f 2e3d 89b0 eabc 0359 693d 9ed3 933d

encoder.actor_encoder.net.mlp.2.bias f4 [256]
-0.03033753 -0.06763437 0.0084476285 -0.02482769 0.0031846834 -0.045714308 -0.0020266632 0.022430921
-0.012069112 0.041289624 -0.017130576 0.013665671 -0.065139346 0.014204214 0.011522128 -0.051811174
0.048416484 0.044829924 -0.028949153 -0.058905747 -0.0022342943 0.016502649 -0.0059482525 0.0402827
0.0024558036 0.038397543 0.034605928 -0.056569807 0.008730689 0.06287486 0.0010436343 -0.033707246
-0.013717676 -0.031018926 0.009918857 -0.013935739 0.023313371 -0.01860297 0.038761638 0.009863315
0.03772686 -0.01202079 0.040631555 0.0018767798 -0.0069684633 -0.007513284 -0.053010073 0.001141257
-0.030704325 0.044713616 -0.006588646 0.028433435 0.022714216 -0.040407803 -0.00473736 0.047946207
0.016809268 0.009665992 0.047772206 -0.032326907 -0.06241188 0.0058050677 0.02687321 -0.012819165
-0.05361658 0.019855889 -0.045851406 0.0010540352 0.044349413 -0.033154964 0.06725425 -0.009601317
0.05160444 -0.049821854 -0.04026839 0.007472022 0.027725626 0.04619597 -0.055071246 0.012751078
-0.016984602 -0.022368414 0.0044734916 -0.014511386 -0.0342947 0.053458717 0.032793846 -0.022672364
-0.001957907 -0.040507026 0.0069818604 -0.019361768 0.042255986 0.0095703285 0.05982811 0.008858341
-0.0037027046 -0.01259165 0.00040452598 -0.025191857 -0.009422599 -0.036311295 -0.08318618 -0.020271042
-0.026619436 0.06931098 -0.021188572 -0.010667251 0.030549737 -0.047462683 -0.043461807 0.0093129845
0.029721532 -0.040323727 -0.02497944 0.014549127 -0.037964124 -0.030910844 -0.013580072 -0.022943811
0.006220862 -0.04029112 -0.02672433 -0.03947047 -0.058154847 -0.06188278 0.014039809 -0.0428214
0.036648322 -0.0046230983 0.0123069715 -0.02378439 0.04946148 0.00068250485 0.04066054 0.026677858
0.027869986 0.015770566 -0.0067058075 -0.06334705 -0.05861062 0.045092802 0.06395186 0.066667624
-0.043116845 -0.045007724 -0.033540837 0.020386355 0.022359796 0.025119154 0.023948893 0.029607935
-0.026737394 -0.011590479 0.029656675 0.048354294 -0.003792438 -0.033536162 -0.06714457 0.03735141
0.041356206 0.060419217 -0.052205298 -0.0058227023 -0.00510503 -0.018331956 0.0112319505 0.04535621
-0.0090884315 -0.044624135 0.016465098 -0.023999576 -0.008611976 -0.017340036 -0.0062394585 0.01684636
-0.026934562 -0.06490503 -0.008620923 0.01803967 0.050047163 0.013424526 -0.038549766 -0.01612447
0.00639271 0.049711633 0.025887286 -0.026328322 -0.016370697 -0.006298874 -0.009209245 0.00147803
0.049253758 0.07085221 0.05328224 -0.040991563 -0.0109590795 0.0069621503 0.003863397 -0.031790867
0.035829455 -0.031409144 0.041143216 0.04027418 0.042597912 0.048506707 -0.026565894 -0.054181468
0.044353023 -0.02933755 0.005439759 -0.011419962 -0.0069392505 0.042950094 0.016605536 0.054952167
-0.015474985 -0.033089746 0.051561993 -0.036355566 -0.06808128 -0.020921653 -0.020072507 -0.047006596
0.014202036 0.034941547 0.006964343 0.0061120847 -0.07960909 -0.012293937 -0.014559962 0.03721297
-0.0044270325 0.0008668119 -0.01923409 0.042845767 -0.031400096 0.05957792 0.012179666 0.041061234
-0.024009142 0.01847832 -0.047502585 -0.013900388 -0.022973971 0.008409364 0.021124901 0.05748137
-0.048970796 0.0057967864 -0.0409793 0.030208563 0.011424015 0.06379034 -0.009487679 0.028805247
00000000: 6986 f8bc e383 8abd ec67 0a3c 7163 cbbc
00000010: 1fb6 503b ed3e 3bbd c4d1 04bb 0dc1 b73c
00000020: 86bd 45bc 4f1f 293d 6c55 8cbc fbe5 5f3c
00000030: c767 85bd cbb8 683c 4fc7 3c3c f437 54bd
00000040: 5d50 463d 959f 373d c626 edbc 2747 71bd
00000050: 3d6d 12bb 9030 873c 8fe9 c2bb 79ff 243d
00000060: 8cf1 203b be46 1d3d f2be 0d3d beb5 67bd
00000070: 2a0b 0f3c 89c4 803d 8eca 883a 9c10 0abd
00000080: 1ac0 60bc 671b febc b482 223c ba52 64bc
00000090: affb be3c 4165 98bc 86c4 1e3d be99 213c
000000a0: 7b87 1a3d d9f2 44bc 466d 263d 48fe f53a
000000b0: b557 e4bb ff31 f6bb 1721 59bd 3b96 953a
000000c0: a387 fbbc a025 373d 92e5 d7bb 3ced e83c
000000d0: 2a13 ba3c a782 25bd db3b 9bbb 3e63 443d
000000e0: 97b3 893c 1c5e 1e3c caac 433d 3869 04bd
000000f0: 99a3 7fbd 7038 be3b 3525 dc3c 7a07 52bc
00000100: 0f9d 5bbd d1a8 a23c afce 3bbd 8d27 8a3a
00000110: bba7 353d 80cd 07bd 99bc 893d d84e 1dbc
00000120: 2d5f 533d 0012 4cbd 78f0 24bd ddd7 f43b
00000130: da20 e33c fc37 3d3d 6392 61bd e6e9 503c
00000140: 4b23 8bbc f73d b7bc 5e96 923b 2ac1 6dbc
00000150: 9978 0cbd 87f7 5a3d d752 063d 65bb b9bc
00000160: 3b50 00bb b2ea 25bd 17c8 e43b 929c 9ebc
00000170: 9d14 2d3d decc 1c3c 520e 753d 9322 113c
00000180: 13a9 72bb 354d 4ebc 8f16 d439 275f cebc
00000190: 3f61 1abc 27bb 14bd 845d aabd 750f a6bc
000001a0: 0111 dabc eaf2 8d3d a893 adbc b2c5 2ebc
000001b0: 7143 fa3c 3b68 42bd 0205 32bd 7d95 183c
000001c0: 927a f33c 7e2a 25bd afa1 ccbc 765f 6e3c
000001d0: 4580 1bbd bd38 fdbc f37e 5ebc a9f4 bbbc
000001e0: 5fd8 cb3b 4d08 25bd fbec dabc caab 21bd
000001f0: c733 6ebd cc78 7dbd 3a07 663c 7e65 2fbd
00000200: 8d1c 163d 5c7d 97bb 2ea3 493c 7bd7 c2bc
00000210: 1f98 4a3d 20ea 323a ab8b 263d 868b da3c
00000220: 994f e43c 4631 813c 64bc dbbb 19bc 81bd
00000230: b111 70bd 3bb3 383d 31f9 823d 0989 883d
00000240: 4a9b 30bd 055a 38bd 1e62 09bd 4901 a73c
00000250: e42b b73c afc6 cd3c 7830 c43c 578c f23c
00000260: 6108 dbbc fee5 3dbc 8ef2 f23c 270f 463d
00000270: 8d8a 78bb 375d 09bd 1883 89bd cbfd 183d
00000280: 2065 293d 247a 773d 39d5 55bd 5ecc bebb
00000290: 1848 a7bb e62c 96bc 3706 383c 6fc7 393d
000002a0: a5e7 14bc ccc7 36bd d0e1 863c c29a c4bc
000002b0: 3f19 0dbc b10c 8ebc 5f74 ccbb 6101 8a3c
000002c0: dfa5 dcbc eeec 84bd c63e 0dbc eec7 933c
000002d0: 41fe 4c3d 8bf2 5b3c 5ce6 1dbd 7717 84bc
000002e0: f079 d13b 6d9e 4b3d 9311 d43c 7eae d7bc
000002f0: d71b 86bc c966 cebb 60e2 16bc 75ba c13a
00000300: 4fbe 493d f71a 913d 7a3e 5a3d c5e6 27bd
00000310: b68d 33bc c022 e43b 0c31 7d3b 2437 02bd
00000320: e8c1 123d e0a6 00bd ca85 283d 8af6 243d
00000330: 267b 2e3d f8ae 463d b8a0 d9bc 63ed 5dbd
00000340: 84ab 353d 4d55 f0bc 0240 b23b cb1a 3bbc
00000350: a762 e3bb 70ec 2f3d 5508 883c 8615 613d
00000360: cb8a 7dbc 1d89 07bd ab32 533d 93e9 14bd
00000370: 336e 8bbd e363 abbc 196f a4bc fd89 40bd
00000380: a8af 683c de1e 0f3d 2535 e43b e247 c83b
00000390: 170a a3bd 826c 49bc e88c 6ebc a16c 183d
000003a0: a410 91bb c33a 633a cf90 9dbc 0b7f 2f3d
000003b0: 639d 00bd fa07 743d 398d 473c d32f 283d
000003c0: d2ae c4bc d95f 973c 1292 42bd 74be 63bc
000003d0: e933 bcbc 6ec7 093c 210e ad3c 9671 6b3d
000003e0: 9a95 48bd f8f2 bd3b e9d9 27bd f377 f73c
000003f0: cb2b 3b3c 83a4 823d 3672 1bbc fbf8 eb3c

encoder.critic_encoder.net.mlp.0.weight f4 [256, 4]
-0.38786513 -0.36160946 0.29539302 -0.42934656 -0.033226445 0.16674887 0.50199133 0.2646304
0.48806188 -0.15038955 0.41916493 -0.45650434 -0.31032228 0.28903627 0.5880149 -0.19231172
-0.4354849 0.36839685 0.21781275 0.31464294 -0.491458 0.03816214 0.06777202 0.03776473
0.27938595 0.25901827 -0.17520282 -0.21992965 0.14583205 -0.16021661 -0.30077803 -0.17164847
-0.004186391 0.39930308 0.6229978 0.5378868 -0.339715 -0.06368917 -0.15026689 -0.00043451812
0.44578907 0.36120757 0.58984274 0.2185174 -0.3854896 -0.14761479 0.03550712 -0.07016674
0.36805558 0.0055045546 -0.45536652 0.06547642 0.35845187 0.24306142 -0.1763611 -0.33636189
-0.18142931 0.42956528 0.39690292 0.017556328 0.08018786 -0.4073614 -0.12883475 -0.49240506
0.5599362 0.060334668 -0.16253297 -0.5140523 -0.39315242 0.3445255 -0.16815346 -0.4437311
0.2941459 0.22875361 -0.123382285 -0.011732551 -0.14279802 -0.31383508 0.6229467 0.207252
-0.53577566 -0.19519947 0.15883568 0.11219112 0.0041316296 -0.212684 -0.76662606 -0.4672201
-0.17930517 -0.42365527 -0.0013596609 -0.23193923 0.16673559 0.22619593 -0.19292995 0.17549653
-0.17195396 -0.08994688 0.19331947 0.43860832 0.32559425 0.16408657 -0.14304629 -0.5188861
0.4379082 0.4604224 0.39566872 -0.17391251 0.16869263 0.23618081 0.3484079 -0.46977082
0.4080526 0.3496585 -0.008914343 0.33040324 0.028828116 0.4464338 0.25959745 -0.20004219
-0.28324476 -0.19450894 -0.10791977 -0.49642605 0.48080117 -0.31712165 0.04069872 -0.042848337
0.28728145 0.080122866 0.42647627 0.016568935 0.3187679 -0.055521294 0.49808618 0.21015517
0.2028145 -0.18770362 0.3455301 0.4750056 -0.35101035 -0.38484785 -0.49291876 -0.22659615
0.30602732 -0.07277744 0.5773466 0.55039936 0.2229794 -0.46863517 -0.42648324 -0.0502936
0.3959219 -0.28295603 -0.31888023 -0.23763877 -0.101882294 -0.25027287 0.013353355 0.09352743
0.4397473 -0.3264288 -0.4143826 0.3342069 0.13694867 -0.20279402 -0.020908358 0.053615104
0.43841228 -0.43921408 -0.05949764 -0.50788563 -0.2522295 0.41452608 0.39721224 0.043416504
0.22826624 -0.21743433 0.48999584 0.02637707 0.13141154 -0.18729359 0.21900915 0.5168936
0.104983166 -0.51917076 0.33710366 0.11506433 0.34866074 -0.24449526 0.05162693 -0.03348716
-0.043601774 0.28194812 0.14751002 -0.38516623 -0.15246189 -0.11585262 -0.337719 0.18699063
-0.18509956 0.45126358 0.36326826 0.031286817 0.36529517 0.36025465 0.47773573 -0.32889983
0.38620043 -0.12412108 -0.15203534 -0.14359157 -0.27530715 0.09093217 0.31495553 0.48193553
0.435168 0.24111931 -0.14674938 0.3212803 -0.27691674 0.030335419 -0.0553899 -0.16558541
0.16246018 -0.27718905 -0.35573843 -0.25912037 0.41963977 -0.057343535 0.42049703 0.053691313
0.07879711 -0.25839335 0.4545718 0.4074081 -0.029615115 -0.34893975 -0.56811833 0.012010929
-0.19302636 0.3111778 0.51490283 -0.24893075 -0.22614634 0.26957425 0.55811435 0.19792187
0.51630473 0.2929103 -0.28663385 -0.23642485 0.33943495 -0.5123018 -0.35695148 -0.4213448
00000000: 4296 c6be e024 b9be c13d 973e 50d3 dbbe
00000010: 7418 08bd 37c0 2a3e 8182 003f a37d 873e
00000020: 3fe3 f93e b8ff 19be c99c d63e f0ba e9be
00000030: 90e2 9ebe 90fc 933e 2588 163f 5ded 44be
00000040: e0f7 debe 839e bc3e 4e0a 5f3e e118 a13e
00000050: 62a0 fbbe e74f 1c3d 0fcc 8a3d 31af 1a3d
00000060: ad0b 8f3e 0b9e 843e 5e68 33be 3d35 61be
00000070: ff54 153e d30f 24be 94ff 99be 9ec4 2fbe
00000080: fe2d 89bb 7471 cc3e c97c 1f3f f3b2 093f
00000090: 20ef adbe 786f 82bd 90df 19be 09d0 e3b9
000000a0: 773e e43e 33f0 b83e efff 163f 06c3 5f3e
000000b0: e55e c5be 5528 17be ea6f 113d 94b3 8fbd
000000c0: c871 bc3e 8d5f b43b cd25 e9be 8018 863d
000000d0: 0187 b73e 18e5 783e 0198 34be a037 acbe
000000e0: 9bc8 39be fbef db3e dc36 cb3e 4ad2 8f3c
000000f0: 8839 a43d ac91 d0be 42ed 03be 841c fcbe
00000100: fb57 0f3f 7c21 773d 0b6f 26be ee98 03bf
00000110: 464b c9be a565 b03e 6c30 2cbe b930 e3be
00000120: 4b9a 963e 633e 6a3e daaf fcbd e339 40bc
00000130: a539 12be feae a0be 6f79 1f3f de39 543e
00000140: 9828 09bf 5fe2 47be d2a5 223e 75c4 e53d
00000150: 9f62 873b d6c9 59be 9b41 44bf 7937 efbe
00000160: c69b 37be 58e9 d8be a636 b2ba 7a81 6dbe
00000170: bcbc 2a3e e89f 673e 6e8f 45be 5db5 333e
00000180: b314 30be 1236 b8bd 8af5 453e 4591 e03e
00000190: 4ab4 a63e 4f06 283e ba7a 12be b8d5 04bf
000001a0: 8135 e03e 7cbc eb3e 1795 ca3e 1f16 32be
000001b0: c3bd 2c3e 62d9 713e 8562 b23e cd85 f0be
000001c0: 45ec d03e 7006 b33e 770d 12bc 9d2a a93e
000001d0: f128 ec3c f992 e43e f5e9 843e dcd7 4cbe
000001e0: 7505 91be 5a2d 47be 0a05 ddbd 8e2b febe
000001f0: 922b f63e c55d a2be b3b3 263d bd81 2fbd
00000200: 8e16 933e 7517 a43d 195b da3e 93bb 873c
00000210: 8c35 a33e 4c6a 63bd 2705 ff3e eb32 573e
00000220: 9bae 4f3e 6135 40be 52e9 b03e ef33 f33e
00000230: a1b7 b3be c70a c5be d95f fcbe d208 68be
00000240: 9daf 9c3e 570c 95bd fdcc 133f f9e6 0c3f
00000250: b654 643e f3f0 efbe 035c dabe a900 4ebd
00000260: 46b6 ca3e 9ddf 90be 4544 a3be 9457 73be
00000270: aaa7 d0bd c423 80be 08c8 5a3c 4f8b bf3d
00000280: 8f26 e13e ad21 a7be f529 d4be 2b1d ab3e
00000290: 463c 0c3e 3ca9 4fbe 0148 abbc 839b 5b3d
000002a0: 9377 e03e abe0 e0be ccb3 73bd cb04 02bf
000002b0: 3a24 81be c33c d43e 675f cb3e 81d5 313d
000002c0: a0be 693e 1ba7 5ebe bce0 fa3e ba14 d83c
000002d0: bf90 063e e4c9 3fbe ef43 603e 2453 043f
000002e0: 6a01 d73d 60e8 04bf da98 ac3e d9a6 eb3d
000002f0: a983 b23e f75c 7abe c276 533d d529 09bd
00000300: c697 32bd 815b 903e de0c 173e 8234 c5be
00000310: f81e 1cbe 2344 edbd 81e9 acbe 797a 3f3e
00000320: bd8a 3dbe 050c e73e 4cfe b93e 9b26 003d
00000330: f807 bb3e 4c73 b83e c799 f43e 8f65 a8be
00000340: 10bc c53e 3133 febd 27af 1bbe ab09 13be
00000350: 0ff5 8cbe a53a ba3d da41 a13e 41c0 f63e
00000360: 57ce de3e fbe7 763e 7845 16be da7e a43e
00000370: 08c8 8dbe fc81 f83c 85e0 62bd 398f 29be
00000380: f65b 263e b9eb 8dbe 5923 b6be 6dab 84be
00000390: 06db d63e 0ee1 6abd 634b d73e 6ceb 5b3d
000003a0: 6160 a13d 224c 84be a3bd e83e cb97 d03e
000003b0: 669b f2bc 3ba8 b2be 3470 11bf 7dc9 443c
000003c0: b4a8 45be b252 9f3e acd0 033f b4e7 7ebe
000003d0: e892 67be a305 8a3e 95e0 0e3f 08ac 4a3e
000003e0: 8c2c 043f 57f8 953e acc1 92be 5b19 72be
000003f0: 6bca ad3e 3626 03bf 58c2 b6be 81ba d7be

encoder.critic_encoder.net.mlp.0.bias f4 [256]
-0.20483081 0.15706733 0.49553296 -0.25649866 0.50461006 0.25423035 0.51644766 -0.4451464
-0.35679677 -0.2605664 -0.25152898 -0.54406184 -0.039124623 0.45151553 0.3029483 0.04494792
0.34845245 0.116704725 0.27881116 -0.50459534 0.2501618 0.42679596 0.10370701 0.19969143
0.5452984 0.2210798 0.62570256 -0.18409011 0.33353102 0.5335334 -0.24070422 -0.16818061
0.2823376 -0.07918398 0.5587547 0.18949625 -0.17439806 -0.4620731 -0.35228327 0.1776584
-0.18010716 0.22553954 -0.40256414 -0.570791 0.18848772 -0.54684716 -0.36140764 -0.02750982
0.3536376 -0.40286323 0.54691184 -0.20793068 -0.2799425 0.44368374 0.50686055 0.502487
-0.436297 0.56908697 0.41289487 0.104070686 -0.28713349 -0.3118279 -0.5437841 -0.39657208
-0.48231164 0.22769645 -0.19291125 0.32299963 0.20645428 -0.55537486 0.38217044 -0.19647478
0.5786027 -0.5363614 0.10746848 0.09966536 0.33665815 0.20735128 -0.54758626 -0.34759465
-0.45458505 0.20123146 -0.35738787 0.10587387 -0.5193983 -0.55806315 0.21514224 0.40744016
-0.35626185 0.29937375 0.44763824 0.38194624 -0.18550694 0.28655204 -0.48106974 -0.4703519
0.26114762 -0.0734759 0.2718151 0.40617797 0.25459832 0.4328076 -0.0026054883 0.5554385
-0.4564441 0.33936176 0.33425173 0.38078034 0.07778039 0.4236651 0.006365243 -0.08413212
0.33230388 -0.57473844 -0.49789798 -0.11981223 -0.2602202 0.3545702 -0.5485539 0.3287393
0.027700286 -0.008080717 0.32070863 -0.22980167 0.03338108 -0.45090386 0.49271482 0.021554103
-0.42197692 0.3022536 0.1384968 -0.14443813 -0.30640626 -0.3238624 0.20386542 0.15667757
0.44146755 -0.28601113 -0.3074491 -0.21501377 -0.5620978 -0.23878774 0.30336222 -0.16092713
0.4004855 0.3217745 -0.31581366 0.24807797 -0.049271706 -0.35754418 0.091764934 0.17177275
0.46841395 -0.5103871 -0.20694093 -0.19087006 0.29745018 0.17704482 -0.15715216 0.24995492
-0.08678543 -0.46187505 -0.37104955 0.35522324 0.34916204 0.24318911 -0.40263212 -0.49272493
0.12250955 0.35398787 -0.111596495 -0.37779215 0.40999678 -0.0862081 0.44044358 -0.5015122
-0.21826011 -0.3055067 0.14473839 0.25017595 0.04341978 0.5539449 0.39527017 -0.12686116
-0.296956 0.22752659 -0.3096278 0.537938 0.43711665 -0.03436621 0.5701159 -0.40064397
-0.42041627 0.47214282 0.14581375 -0.25648594 -0.5567713 -0.22423893 -0.25905305 -0.31328487
-0.53558373 0.5009085 0.4204704 -0.1570844 -0.11424435 0.31561422 -0.54728305 0.4587801
0.327332 0.47299698 -0.17529887 0.42609352 0.18410113 0.51346016 -0.26241124 0.25711906
-0.09167782 -0.15501948 0.5443519 -0.22896539 0.53323627 0.34855363 0.5261738 0.118127786
-0.50906473 -0.34349278 -0.14267606 -0.39978912 0.3952399 0.22602649 0.45689765 -0.3604759
-0.28162602 -0.50884616 -0.5552933 -0.2797489 0.04182911 0.548495 0.23961388 -0.38838965
0.3594071 0.024776103 -0.08829481 0.14396058 -0.27967042 0.19040659 0.32345933 -0.036870666
-0.15171933 -0.43871275 -0.37535518 -0.32889166 -0.48694205 -0.45109844 -0.20570728 -0.28547513
00000000: 2bbf 51be 42d6 203e 7fb6 fd3e cb53 83be
00000010: 202e 013f 7b2a 823e ea35 043f 3bea e3be
00000020: 11ae b6be f668 85be 68c8 80be a347 0bbf
00000030: 2441 20bd 0b2d e73e 0a1c 9b3e 4f1b 383d
00000040: 5c68 b23e e302 ef3d 56c0 8e3e 292d 01bf
00000050: 3515 803e 0085 da3e 5764 d43d e97b 4c3e
00000060: ad98 0b3f be62 623e 0b2e 203f 1e82 3cbe
00000070: 94c4 aa3e a595 083f 2b7b 76be 8a37 2cbe
00000080: 8e8e 903e 362b a2bd 8c0a 0f3f 4e0b 423e
00000090: 6895 32be d894 ecbe 795e b4be 15ec 353e
000000a0: 036e 38be d6f3 663e e31c cebe 5c1f 12bf
000000b0: ed02 413e 2dfe 0bbf 6c0a b9be 465c e1bc
000000c0: fd0f b53e 1744 cebe 6a02 0c3f c8eb 54be
000000d0: a054 8fbe 842a e33e 9dc1 013f fda2 003f
000000e0: 5262 dfbe afaf 113f f566 d33e 0323 d53d
000000f0: 2903 93be e8a7 9fbe 6f35 0bbf 7f0b cbbe
00000100: 8df1 f6be 4229 693e 878a 45be 3560 a53e
00000110: c068 533e 0c2d 0ebf d8ab c33e af30 49be
00000120: 4e1f 143f fb4e 09bf 6f18 dc3d 5a1d cc3d
00000130: 755e ac3e e553 543e 9d2e 0cbf edf7 b1be
00000140: 5fbf e8be 9f0f 4e3e 8bfb b6be 66d4 d83d
00000150: 49f7 04bf 3add 0ebf 3f4e 5c3e ff9b d03e
00000160: f467 b6be 8447 993e d730 e53e 758e c33e
00000170: 88f5 3dbe f3b6 923e c64e f6be f7d1 f0be
00000180: 24b5 853e 887a 96bd 592b 8b3e 8ff6 cf3e
00000190: b65a 823e f598 dd3e d7c0 2abb 3831 0e3f
000001a0: 0bb3 e9be d3c0 ad3e 0b23 ab3e a4f5 c23e
000001b0: 534b 9f3d a2ea d83e 8793 d03b 764d acbd
000001c0: bc23 aa3e 0f22 13bf 7cec febe 1d60 f5bd
000001d0: 953b 85be 3a8a b53e 076e 0cbf 8450 a83e
000001e0: b6eb e23c fc64 04bc ec33 a43e 2151 6bbe
000001f0: 99ba 083d dfdc e6be 1e45 fc3e 3b92 b03c
00000200: 5c0d d8be fcc0 9a3e 1bd2 0d3e 97e7 13be
00000210: 48e1 9cbe 4bd1 a5be 19c2 503e 1670 203e
00000220: 0908 e23e 0d70 92be f869 9dbe 922c 5cbe
00000230: a4e5 0fbf c684 74be 4b52 9b3e 15ca 24be
00000240: 6f0c cd3e a1bf a43e 54b2 a1be 2708 7e3e
00000250: 21d1 49bd 0810 b7be 41ef bb3d 32e5 2f3e
00000260: f4d3 ef3e bba8 02bf 53e8 53be 7173 43be
00000270: 644b 983e 3d4b 353e 7fec 20be 2ff4 7f3e
00000280: 8fbc b1bd e37a ecbe 35fa bdbe d2df b53e
00000290: 5ec5 b23e 9106 793e cc25 cebe 7146 fcbe
000002a0: 49e6 fa3d e63d b53e b48c e4bd f96d c1be
000002b0: 19eb d13e df8d b0bd d281 e13e 1b63 00bf
000002c0: 947f 5fbe 606b 9cbe 4d36 143e 1017 803e
000002d0: f0d8 313d 55cf 0d3f da60 ca3e e4e7 01be
000002e0: 9e0a 98be bbfc 683e 8987 9ebe 4eb6 093f
000002f0: c1cd df3e 95c3 0cbd 1ef3 113f 3521 cdbe
00000300: cd40 d7be b4bc f13e 3350 153e 2052 83be
00000310: 9088 0ebf e49e 65be 9aa2 84be e066 a0be
00000320: 041c 09bf 8a3b 003f e547 d73e bcda 20be
00000330: f1f8 e9bd 3098 a13e be1a 0cbf 3ae5 ea3e
00000340: 0f98 a73e a92c f23e 8c81 33be ee28 da3e
00000350: 0285 3c3e 2072 033f c45a 86be 1ca5 833e
00000360: 95c1 bbbd 6dbd 1ebe a55a 0b3f e775 6abe
00000370: 2c82 083f 9f75 b23e 53b3 063f fbec f13d
00000380: 1152 02bf 49de afbe ac19 12be 29b1 ccbe
00000390: e25c ca3e 7d73 673e 7dee e93e 4c90 b8be
000003a0: 4931 90be be43 02bf b427 0ebf 3f3b 8fbe
000003b0: 0055 2b3d 2b6a 0c3f 575d 753e 02db c6be
000003c0: 3504 b83e 41f7 ca3c e9d3 b4bd 676a 133e
000003d0: f630 8fbe f2f9 423e 769c a53e b205 17bd
000003e0: 505c 1bbe f59e e0be 8e2e c0be 7d64 a8be
000003f0: 7850 f9be 60f6 e6be eea4 52be cc29 92be

encoder.critic_encoder.net.mlp.2.weight f4 [256, 256]
-0.060884982 0.045723423 0.08520065 -0.08880256 0.16368032 0.079815485 0.018526794 -0.14446594
-0.19548617 -0.04272897 -0.09183873 0.006506826 -0.035524804 0.07277843 0.11051639 0.025561722
0.058053236 0.027213082 -0.010576459 -0.038571134 0.029248027 0.1256279 0.005952861 -0.015337809
0.12880749 -0.0142386295 0.014044613 -0.031346023 0.07785283 0.090343535 -0.023000529 -0.05902195
0.07961624 -0.085044615 0.07114136 -0.0043169744 -0.1275735 -0.012619815 -0.1127111 0.102628075
-0.013289986 0.112907894 -0.074118 -0.011319234 0.07142297 -0.078782655 -0.08445721 -0.015153197
0.029159319 -0.072871715 0.11614581 -0.102862954 -0.09507563 0.1511937 0.019768378 0.13701762
-0.04224585 -0.008959265 0.09421497 0.062056594 -0.075257055 -0.02272177 -0.109772645 -0.008303593
-0.052760866 0.06491496 0.031300027 0.1049703 0.049681954 0.002275124 0.11403051 -0.03985776
0.011984144 -0.14906715 -0.016483266 0.010739491 0.010479342 0.06810504 -0.12868764 -0.01133505
-0.15291093 -0.0032262907 -0.02355525 -0.013957646 0.006024471 -0.08708851 0.07557584 0.09478003
-0.037183814 0.02828554 0.07185946 0.03553189 -0.061613753 0.042871576 -0.013158416 0.009071098
0.030959005 0.081616126 0.01836527 0.076130316 0.097974494 0.08595831 -0.029949587 0.15241535
-0.005806459 0.13936466 0.0141578745 0.02356367 -0.010288483 0.08315562 0.028631026 -0.06918414
-0.016946264 -0.0061735557 -0.23382469 0.0029776723 -0.005237365 0.019203236 -0.11600542 0.11890847
0.016094355 0.009336185 0.017790096 -0.040028933 0.026686057 -0.08613826 -0.00463854 0.05561725
-0.07100672 0.031218408 0.037020944 -0.031879205 -0.12349282 -0.07866953 0.16357662 -0.0052554463
0.06282067 -0.092750765 -0.06689422 0.032600224 0.007610286 0.003726561 0.02016274 -0.055366836
0.13408306 0.118743554 -0.15025415 0.02448474 0.02561929 -0.027954325 -0.013234435 -0.041774813
0.067394845 -0.08832278 -0.12393133 -0.025100563 0.063609265 0.06515259 -0.008163093 0.11702472
-0.087535776 -0.040068086 -0.08688019 0.0600659 0.09691853 0.1348171 -0.09603897 -0.12760201
0.018837022 0.06746445 -0.12836908 -0.108237736 0.0013735263 -0.030845992 0.11853581 -0.0727786
-0.07513317 -0.081421345 0.028357698 0.025859892 0.014043232 0.08363179 0.14401631 0.03088391
-0.04491526 0.10402291 0.0038075543 0.025802424 0.15506454 0.05126811 0.10539179 -0.11013492
-0.045520857 0.17000814 0.0815262 -0.090663925 -0.075935565 -0.09040229 -0.08102558 0.0004919218
-0.010450099 0.12545308 0.046193607 -0.12348821 -0.09362567 0.11074794 -0.0007139782 0.021804444
0.09590703 0.057448875 0.008451867 0.118054144 0.024079151 0.057772446 -0.18305255 0.04005912
-0.052689496 -0.04678667 0.028897524 -0.022560008 0.07033662 -0.015821546 0.09738974 -0.057315107
-0.016574973 -0.021448862 -0.12497022 0.020686027 0.14229725 0.01942867 -0.023067802 -0.18371746
-0.08224869 -0.07890314 -0.10490648 0.0073636957 -0.0017609515 0.1577764 0.052247252 0.017473819
0.094048046 0.056910627 0.055160757 0.04233311 -0.13396342 0.11630476 0.051602103 -0.02793256
-0.021249352 -0.084816925 -0.042575076 -0.052431177 0.007474615 -0.14036262 -0.10580569 -0.16438831
00000000: 8862 79bd 7c48 3b3d ae7d ae3d 1ede b5bd
00000010: d09b 273e 4d76 a33d 81c5 973c e1ee 13be
00000020: 872d 48be 9304 2fbd f215 bcbd 3637 d53b
00000030: 7582 11bd dc0c 953d 6b56 e23d d166 d13c
00000040: 3bc9 6d3d f8ed de3c e248 2dbc c4fc 1dbd
00000050: 8f99 ef3c 9aa4 003e 3810 c33b 6f4b 7bbc
00000060: 1ce6 033e 2449 69bc 601b 663c b064 00bd
00000070: 4e71 9f3d 0806 b93d 9b6b bcbc 00c1 71bd
00000080: d70d a33d df2b aebd 90b2 913d 6875 8dbb
00000090: a1a2 02be 57c3 4ebc 14d5 e6bd ab2e d23d
000000a0: 3ebe 59bc 413c e73d 2ecb 97bd 4f74 39bc
000000b0: 3546 923d cd58 a1bd e7f7 acbd 1d45 78bc
000000c0: 86df ee3c c43d 95bd dbdd ed3d d0a9 d2bd
000000d0: 03b7 c2bd 85d2 1a3e 4bf1 a13c 594e 0c3e
000000e0: fc09 2dbd e2c9 12bc c7f3 c03d 0e2f 7e3d
000000f0: 5f20 9abd 0123 babc 7bd0 e0bd cb0b 08bc
00000100: c71b 58bd 22f2 843d 7534 003d abfa d63d
00000110: 4e7f 4b3d 3f1a 153b d488 e93d e441 23bd
00000120: 2559 443c 0fa5 18be ea07 87bc b1f4 2f3c
00000130: 8cb1 2b3c a87a 8b3d b1c6 03be a5b6 39bc
00000140: af94 1cbe 2d70 53bb f1f6 c0bc 9cae 64bc
00000150: ed68 c53b 765b b2bd 82c7 9a3d 081c c23d
00000160: 0e4e 18bd 14b7 e73c 0d2b 933d e389 113d
00000170: b45e 7cbd 1b9a 2f3d 6696 57bc f19e 143c
00000180: bd9d fd3c 5b26 a73d c372 963c 36ea 9b3d
00000190: daa6 c83d e90a b03d d658 f5bc c512 1c3e
000001a0: 1c44 bebb 9cb5 0e3e 6ef6 673c 9908 c13c
000001b0: 0791 28bc 7e4d aa3d 9d8b ea3c 6ab0 8dbd
000001c0: e4d2 8abc 8a4b cabb bd6f 6fbe 0d25 433b
000001d0: 349e abbb 1b50 9d3c 4094 edbd 4986 f33d
000001e0: 4fd8 833c ccf6 183c 89bc 913c 61f5 23bd
000001f0: b89c da3c 4269 b0bd e5fe 97bb eace 633d
00000200: f96b 91bd bfbd ff3c 46a3 173d c593 02bd
00000210: cee9 fcbd 7e1d a1bd a180 273e e135 acbb
00000220: 20a8 803d 1df4 bdbd d6ff 88bd d087 053d
00000230: b55f f93b 5239 743b 552c a53c 56c8 62bd
00000240: 124d 093e d22f f33d 39dc 19be 3994 c83c
00000250: 8cdf d13c 7800 e5bc 3ed5 58bc 111c 2bbd
00000260: 4f06 8a3d 93e2 b4bd b6cf fdbd b29f cdbc
00000270: 9345 823d b96e 853d 7ebe 05bc a8aa ef3d
00000280: f545 b3bd 6f1e 24bd 3eee b1bd a907 763d
00000290: 397d c63d 7e0d 0a3e 14b0 c4bd 1aaa 02be
000002a0: 1950 9a3c cd2a 8a3d 2f73 03be bfab ddbd
000002b0: e507 b43a bcb0 fcbc e7c2 f23d f20c 95bd
000002c0: 6bdf 99bd 3cc0 a6bd 674e e83c 20d8 d33c
000002d0: 9615 663c 2547 ab3d 0379 133e 4100 fd3c
000002e0: 10f9 37bd f709 d53d 2988 793b 9b5f d33c
000002f0: 3dc9 1e3e 82fe 513d a7d7 d73d 6b8e e1bd
00000300: 1474 3abd 9d16 2e3e 35f7 a63d 02ae b9bd
00000310: 1b84 9bbd d624 b9bd bdf0 a5bd 50f4 003a
00000320: e436 2bbc c676 003e 8235 3d3d 63e7 fcbd
00000330: d1be bfbd d1cf e23d 442a 3bba 3c9f b23c
00000340: e86a c43d 834f 6b3d b379 0a3c 5fc6 f13d
00000350: a441 c53c cda2 6c3d 2172 3bbe 0815 243d
00000360: f1d0 57bd 61a3 3fbd 80ba ec3c c4cf b8bc
00000370: a50c 903d 309c 81bc 4674 c73d 3fc3 6abd
00000380: 3dc8 87bc 86b5 afbc 63f0 ffbd be75 a93c
00000390: 5fb6 113e e028 9f3c b0f8 bcbc 6e20 3cbe
000003a0: 0072 a8bd f897 a1bd 35d9 d6bd 284b f13b
000003b0: bacf e6ba 2390 213e 3701 563d 4125 8f3c
000003c0: 439c c03d 1e1b 693d 3ff0 613d 7c65 2d3d
000003d0: b52d 09be 3131 ee3d ba5c 533d d3d2 e4bc
000003e0: 1f13 aebc 7fb4 adbd 3463 2ebd 13c2 56bd
000003f0: 9ded f43b 38bb 0fbe a7b0 d8bd 6955 28be

encoder.critic_encoder.net.mlp.2.bias f4 [256]
0.08920187 -0.08678276 0.0148781855 0.05451496 0.10192228 0.030117463 -0.092136525 0.09997481
-0.08105447 -0.11233479 -0.0119144935 0.12281138 -0.09945423 0.05023105 -0.042723306 0.027816363
-0.10397974 0.00059809186 0.09820722 0.07061829 -0.062396783 -0.062048633 0.060848184 0.0641942
0.039342478 0.059136644 -0.03077255 0.03427122 -0.092123926 0.03712127 0.03886821 -0.0733959
-0.08236209 -0.014130982 0.10816076 -0.03911476 0.12445015 0.08887804 -0.010325911 -0.033812646
0.12147325 0.03177558 0.05951652 -0.07716272 0.022447059 -0.04332716 -0.11164224 -0.03762237
-0.0737018 0.10935344 0.0039742296 0.06605968 -0.040072497 0.06661823 0.016668843 0.02697223
-0.011437394 0.060599927 0.0009219908 -0.004599825 -0.0398169 0.07314619 -0.070037924 -0.07771713
0.09923214 -0.0096737845 0.08470365 0.111720294 0.09457784 -0.04576023 -0.049088452 0.07355916
0.01765149 -0.008014443 0.015603796 0.07790983 0.009287003 -0.056389026 -0.06383799 0.08453364
0.054339994 0.10133126 -0.002586846 -0.059888843 0.04418511 -0.011141733 -0.024679074 -0.015958019
-0.020911597 -0.0027950811 -0.027387151 -0.023057299 0.069997706 -0.0004300524 -0.027932864 0.15619926
-0.07302365 -0.068788156 -0.05690768 -0.063567705 -0.023579452 0.083410956 -0.15984286 -0.0048430213
0.005349244 0.11091122 -0.10012704 0.03461167 0.05369295 -0.1107324 0.11538245 -0.041825768
-0.08396617 -0.015330505 -0.007986175 -0.09319185 -0.10604292 -0.0485474 -0.05379928 -0.04963936
0.1375189 -0.10745029 -0.0815063 -0.02945213 0.1136069 -0.012630059 0.07224327 0.07418643
-0.032161865 -0.07311077 -0.07978792 0.06961475 -0.049193118 0.057316106 0.1399125 -0.015069367
-0.03726674 0.067075744 0.014230925 0.105938986 -0.021458535 -0.11373701 0.11440498 -0.113855906
-0.080272235 -0.056455612 0.07611884 -0.051215332 -0.14045896 -0.017470889 -0.0038767988 0.033294473
0.09901962 0.10292964 -0.011558005 -0.100398146 0.015042832 0.05737849 0.08956225 0.05105775
-0.067341454 0.087697305 -0.077839084 0.06788275 0.13747744 -0.13305536 0.06500982 -0.07328429
0.13999186 0.028599612 -0.12129585 -0.09947739 -0.12167854 0.052889235 0.11011939 0.081687555
-0.10827781 0.078016266 0.038474794 0.08662093 0.09468807 -0.045649465 -0.04262876 0.095315434
0.10800368 0.045613367 0.0048189233 0.10692053 0.11832487 0.106582545 -0.014747956 0.09680466
-0.05108909 0.07027705 -0.08651048 -0.019385617 0.08035453 -0.08250296 0.00022689006 0.014888841
0.070630535 0.12324734 0.021537738 -0.041286875 0.0998512 0.0032775614 0.08052234 -0.106159925
0.059196472 -0.11998241 0.08070445 -0.050177217 -0.07059318 -0.124513805 0.096222304 -0.051612876
0.08885986 -0.04570719 0.091743544 -0.011726654 -0.12998962 -0.053973846 0.08485658 0.11669246
-0.10951628 0.07748384 -0.07062626 0.022166066 -0.068552345 -0.046888493 -0.074997894 -0.0069656004
0.115151145 -0.084884025 0.1068465 -0.036311146 0.034289498 -0.047412716 0.097336285 0.08000825
0.052477017 -0.019033225 -0.12310124 0.10814818 0.0016647938 -0.030433808 -0.012896095 -0.0046414845
-0.07680484 -0.120160826 -0.035845477 -0.013652113 -0.08454545 0.009331642 0.09269873 0.00037153243
00000000: 78af b63d 29bb b1bd a2c3 733c 144b 5f3d
00000010: a1bc d03d e6b8 f63c 13b2 bcbd 98bf cc3d
00000020: e3ff a5bd c80f e6bd 0235 43bc 8884 fb3d
00000030: a9ae cbbd 13bf 4d3d a2fe 2ebd 24df e33c
00000040: 54f3 d4bd 44c9 1c3a de20 c93d 52a0 903d
00000050: c593 7fbd b526 7ebd f23b 793d 4078 833d
00000060: 9425 213d 4439 723d b716 fcbc fb5f 0c3d
00000070: 78ab bcbd 790c 183d 4634 1f3d 9750 96bd
00000080: 75ad a8bd a285 67bc 6383 dd3d cc36 20bd
00000090: b8df fe3d b105 b63d 032e 29bc 217f 0abd
000000a0: f8c6 f83d 1c27 023d 98c7 733d 7d07 9ebd
000000b0: e5e2 b73c d277 31bd b0a4 e4bd ea19 1abd
000000c0: f8f0 96bd b2f4 df3d 413a 823b 4c4a 873d
000000d0: 0f23 24bd 236f 883d 198d 883c def4 dc3c
000000e0: e863 3bbc a137 783d c1b1 713a 21ba 96bb
000000f0: 0c17 23bd abcd 953d 0b70 8fbd 292a 9fbd
00000100: 383a cb3d cb7e 1ebc 1b79 ad3d 9ccd e43d
00000110: 07b2 c13d 146f 3bbd f910 49bd 2fa6 963d
00000120: dc99 903c 034f 03bc 10a7 7f3c 308f 9f3d
00000130: 8428 183c 2ef8 66bd 7ebd 82bd f91f ad3d
00000140: 9d93 5e3d c386 cf3d 1388 29bb 014e 75bd
00000150: 72fb 343d d18b 36bc c52b cabc 64ba 82bc
00000160: cc4e abbc ae2d 37bb 055b e0bc a9e2 bcbc
00000170: f55a 8f3d a878 e1b9 76d3 e4bc b3f2 1f3e
00000180: 6c8d 95bd cee0 8cbd 0718 69bd c92f 82bd
00000190: b229 c1bc 5dd3 aa3d d9ad 23be 35b2 9ebb
000001a0: b648 af3b 6c25 e33d 680f cdbd f7c4 0d3d
000001b0: 24ed 5b3d abc7 e2bd a24d ec3d 7f51 2bbd
000001c0: 75f6 abbd cc2c 7bbc 72d8 02bc 5edb bebd
000001d0: 082d d9bd a3d9 46bd a25c 5cbd a452 4bbd
000001e0: c1d1 0c3e e60e dcbd c6ec a6bd 9845 f1bc
000001f0: bcaa e83d 4fee 4ebc 48f4 933d 0eef 973d
00000200: 29bc 03bd 19bb 95bd d967 a3bd 2e92 8e3d
00000210: b97e 49bd 4bc4 6a3d 3945 0f3e 82e5 76bc
00000220: 02a5 18bd 025f 893d d328 693c 8af6 d83d
00000230: cfc9 afbc f3ee e8bd 284d ea3d 492d e9bd
00000240: c565 a4bd 003e 67bd 32e4 9b3d 2bc7 51bd
00000250: 79d4 0fbe 1c1f 8fbc e411 7ebb c95f 083d
00000260: ccca ca3d c6cc d23d c95d 3dbc 8b9d cdbd
00000270: 3676 763c b505 6b3d 6a6c b73d ee21 513d
00000280: 51ea 89bd a59a b33d 196a 9fbd 1c06 8b3d
00000290: e3c6 0c3e aa3f 08be de23 853d 1316 96bd
000002a0: 075a 0f3e bc49 ea3c f569 f8bd cdba cbbd
000002b0: 9932 f9bd 62a2 583d 4686 e13d ce4b a73d
000002c0: c2c0 ddbd fec6 9f3d bf97 1d3d 5066 b13d
000002d0: d2eb c13d effa 3abd 7f9b 2ebd bd34 c33d
000002e0: 0931 dd3d 15d5 3a3d 0fe8 9d3b 27f9 da3d
000002f0: 4f54 f23d f347 da3d 69a1 71bc 8641 c63d
00000300: cb42 51bd 6aed 8f3d 682c b1bd 96ce 9ebc
00000310: ea90 a43d 50f7 a8bd 56e9 6d39 53f0 733c
00000320: bea6 903d 1a69 fc3d e96f b03c 6d1c 29bd
00000330: c97e cc3d 5bcc 563b e6e8 a43d 606a d9bd
00000340: 0078 723d 56b9 f5bd 6048 a53d a086 4dbd
00000350: 2893 90bd 1801 ffbd 3310 c53d 0668 53bd
00000360: 29fc b53d 7637 3bbd 0ae4 bb3d 2721 40bc
00000370: 001c 05be ae13 5dbd 49c9 ad3d 75fc ee3d
00000380: 124a e0bd d9af 9e3d 80a4 90bd 9c95 b53c
00000390: 2c65 8cbd 260e 40bd 7f98 99bd b13f e4bb
000003a0: 5dd4 eb3d add7 adbd 56d2 da3d ffba 14bd
000003b0: 2573 0c3d d633 42bd 3f58 c73d 5edb a33d
000003c0: 24f2 563d 91eb 9bbc 811c fcbd cb7c dd3d
000003d0: 3635 da3a 5250 f9bc 254a 53bc 9817 98bb
000003e0: db4b 9dbd e116 f6bd b5d2 12bd 1dad 5fbc
000003f0: 2a26 adbd bee3 183c d5d8 bd3d 3dca c239
